log_odenet_mnist/model_50.pth (torch_old, 835331 bytes, 20 tensors)

downsampling.0.weight f4 [64, 1, 3, 3]
00000000: 8f78 a6bf ebfd a8bf ef02 a3bf 6415 74bf
00000010: a9d0 84bf a1c5 babf 3dc9 9ebf 7c79 a4bf
00000020: 5827 d8bf 349c f7be f426 5ebf 280a dabf
00000030: 8b63 18bf 8e5e 9bbf 963a d8bf f31e d5be
00000040: ff4f 47bf 81d7 adbf a413 3ebe 67dd 8ebe
00000050: 6575 0dbf d7a3 e4be f17a 95be e57f 50bf
00000060: 4c62 53be 9e91 a6be f892 41bf 0dc7 0d40
00000070: a2d7 ea3f 8711 fd3f 3489 1840 1fa9 1340
00000080: af89 0d40 3758 0d40 de67 fb3f 6e52 fc3f
00000090: 9a79 0d40 bb6a fc3f 6543 1140 dab0 e83f
000000a0: dad6 e83f 6604 1840 555e 1640 1d77 1a40
000000b0: bb30 0f40 c2bd 953f 1688 823f f26e 403f
000000c0: d09c 853f 05c6 4a3f 0a2c 693f fe42 a63f
000000d0: 6d60 b33f 0245 893f edef 17c0 4216 0ec0
000000e0: 86f2 1fc0 bb71 dfbf aa4b efbf 34b6 21c0
000000f0: 6dba 07c0 c135 ecbf 3961 21c0 c657 573e
00000100: ee02 a7be 367a 303d e409 27be 5372 b6bd
00000110: 8156 f5bd c651 273e a53a 0dbe 8e46 1bbe
00000120: ffb6 1040 ab67 0d40 9fa2 1040 80c5 0d40
00000130: e6de d73f 72fd 0940 208d 0040 32e2 0c40
00000140: a695 f23f fe3f 8bbe aee6 8ebe 7d81 02bf
00000150: 46c9 26bf f0f3 45bf 22e2 e7be 269f 78be
00000160: 63ec ecbe cd60 e0be 8986 993c 6fc8 f73c
00000170: f6eb 27be 97cc 12be 6640 cabc 9a26 1e3e
00000180: f717 2c3e 9789 603d c8c2 ea3e 016d debf
00000190: a0c4 cebf 164f c3bf bcea 07c0 29a6 03c0
000001a0: ca60 08c0 bbce 0dc0 3f19 15c0 1c2a 34c0
000001b0: ba57 8abf 7295 73bf 0162 aabf 7966 c6bf
000001c0: dd14 c4bf 0c00 b8bf 052b cdbf ad68 93bf
000001d0: 3971 b3bf 6bec 7b3f 71ab 853f e9cc 933f
000001e0: b593 9b3f 7cb6 873f ffc8 643f 8418 a93f
000001f0: 274b 823f 100f 8d3f 1abd 323f 9203 ab3e
00000200: 9602 d53e d486 083e 8b23 cf3e 6c51 c33c
00000210: 8e6e fd3d 59b5 b53e 60fb 103f 7a3f 58bf
00000220: 7d93 2dbf e01c 40bf ba8b 84bf 5e44 9ebf
00000230: d8f7 5ebf 6647 8fbf ae5d 83bf 3d94 adbf
00000240: cf66 53bf 821b 66bf b60a 3dbf 608f 1dbf
00000250: aa33 7fbf 72f8 97bf 19a9 a6bf addc 6ebf
00000260: 7861 95bf ef39 343c 2948 f0bd 3e81 a3be
00000270: cd5f 8abd 9e60 213e 029e a2be 211a 0b3f
00000280: f588 473d 97d6 8bbe cb57 cbbf 0f56 e7bf
00000290: b466 bbbf 2757 dcbf 64f0 e5bf f8b4 dabf
000002a0: 896c d0bf 79a0 0ac0 ab10 f6bf e824 0abe
000002b0: 3c8d e2be 0901 0ebe bf00 b2be d573 12bf
000002c0: d1c0 fbbe ac36 63bf 6f94 2ebf 79ea 48bf
000002d0: 7a49 bebf 1cdd e9bf 8a39 b9bf c9ec e2bf
000002e0: 2a75 b1bf bfc5 fabf 7b69 d8bf 853c e2bf
000002f0: 253b ddbf 664c 553f 2e83 823f 8230 923f
00000300: bc4c 983f d6ab 453f e61d 7c3f 9645 513f
00000310: 0551 433f a231 6f3f 47a2 18bf 1c9f 3dbf
00000320: 782c 38bf 73ae 4fbe 8686 8cbe 4d61 35bd
00000330: 3b57 bebe b053 6fbe f233 d3bd 19df c23f
00000340: 22d2 973f b040 c53f af05 a93f b5be 9b3f
00000350: 57c9 d63f 13aa ce3f d04e d53f ae66 bb3f
00000360: 4be8 7abf 963e 37bf 3353 46bf 6bdd 3bbf
00000370: 7a8a 17bf c955 9cbf f730 7cbf bba9 4fbf
00000380: 1b35 97bf cb21 c13f 18f6 bc3f 2ad1 e03f
00000390: fcdd ca3f 280a a23f 194a a43f 88a7 c63f
000003a0: f08e d93f a2f7 b03f 54cc 4f3e 590d 0e3e
000003b0: ee51 393e b04d a83e aedf 6e3e 2660 e93e
000003c0: 6ccf 133f b0f3 253f 0bef d23e 462d 68bf
000003d0: 53f7 18bf cc46 7dbf 467a 59bf 6e42 3bbf
000003e0: 256b 81bf 1495 99bf 416a 99bf 43e4 cbbf
000003f0: c95b dfbf 2061 09c0 db48 0dc0 bfa2 08c0
-1.3005542 -1.320249 -1.273527 -0.9534514 -1.0376178 -1.4591562 -1.2405163 -1.2849574
-1.6887007 -0.4836136 -0.8677819 -1.703435 -0.5952689 -1.2138231 -1.6892879 -0.41625175
-0.7785644 -1.3581392 -0.1856218 -0.27903292 -0.55257255 -0.4465625 -0.2919536 -0.8144515
-0.20642966 -0.32532972 -0.7561488 2.215274 1.8347056 1.9770974 2.3833742 2.3071973
2.2115285 2.2085092 1.9641073 1.9712656 2.210547 1.9720072 2.2697384 1.8178971
1.8190567 2.3752685 2.3495076 2.41352 2.2373493 1.1698534 1.019778 0.7516929
1.043848 0.79208404 0.91082823 1.2989194 1.4013802 1.0724185 -2.374019 -2.2201085
-2.4991775 -1.7456583 -1.8694966 -2.5267458 -2.1207535 -1.8453904 -2.521559 0.21029577
-0.32619423 0.0430853 -0.16312367 -0.08908524 -0.1197939 0.16339788 -0.13791902 -0.15163633
2.2611692 2.2094524 2.2599256 2.2151794 1.6864898 2.156094 2.0086136 2.2013059
1.8951919 -0.2719726 -0.2791037 -0.50978833 -0.6515087 -0.77325344 -0.45289713 -0.2427946
-0.462741 -0.43823853 0.01874091 0.030246941 -0.16398606 -0.14335857 -0.02468891 0.15444413
0.16806017 0.054818716 0.4585173 -1.7377015 -1.6153755 -1.525851 -2.123702 -2.0570166
-2.1309075 -2.2157428 -2.329666 -2.8150702 -1.0808022 -0.9514991 -1.3311158 -1.5500022
-1.5318867 -1.4375014 -1.6028754 -1.151632 -1.4018928 0.9840762 1.0442945 1.1546909
1.2154452 1.0602565 0.89369196 1.3210607 1.0179185 1.1020222 0.69819796 0.3340116
0.41603535 0.13332683 0.40456805 0.023842536 0.12374602 0.3548992 0.5663357 -0.8447186
-0.67803174 -0.7504406 -1.0355141 -1.2364614 -0.8709693 -1.1193664 -1.0262964 -1.3560864
-0.8257875 -0.89885724 -0.7384447 -0.615469 -0.9968821 -1.1872694 -1.3020355 -0.93305475
-1.167037 0.011000141 -0.117325135 -0.3193454 -0.06756554 0.15759513 -0.31761175 0.54336745
0.048714597 -0.27312157 -1.5886167 -1.8073138 -1.4640718 -1.7214097 -1.7963986 -1.7086477
-1.6283122 -2.1660445 -1.9223837 -0.13490641 -0.44248378 -0.13867582 -0.34766194 -0.57207996
-0.49170545 -0.887553 -0.6819524 -0.78482777 -1.4866173 -1.8270602 -1.4470685 -1.7728511
-1.3863881 -1.9591597 -1.690719 -1.7674719 -1.7283674 0.833197 1.0196283 1.1421053
1.1898417 0.77215326 0.9848312 0.81746805 0.762955 0.9343511 -0.59622616 -0.74070907
-0.71942854 -0.20281391 -0.27446383 -0.044282246 -0.37175927 -0.23371768 -0.10312642 1.5224334
1.1861002 1.5410366 1.320486 1.2167574 1.6780194 1.6145653 1.6664677 1.464071
-0.980107 -0.71579874 -0.774707 -0.7338473 -0.59195673 -1.221368 -0.98512214 -0.81118363
-1.1813082 1.5088438 1.4762602 1.7563832 1.5848994 1.265935 1.2835113 1.5519876
1.6996746 1.3825572 0.20292789 0.13872279 0.1809766 0.3287177 0.23327515 0.45581168
0.57738376 0.6482496 0.41198 -0.9069408 -0.59752387 -0.9893615 -0.849522 -0.7314824
-1.0110823 -1.199862 -1.1985551 -1.5929035 -1.7449886 -2.146553 -2.2075717 -2.1349332

downsampling.0.bias f4 [64]
00000000: 1736 1fc0 d9f9 2140 fde4 4fbe c8a3 2c3d
00000010: 766c 22bd cb63 5a3e 09c8 1fbf 150f 763f
00000020: 5fad a33f ac54 8dbf a4d3 9b3f 90ea a8bf
00000030: 863a dfbe bc66 193f 45d5 18c0 0584 2440
00000040: 632e b63f 5502 b2bf b5b6 e4bf 6407 cf3f
00000050: 8453 bbbf dcc0 ca3f 6a85 0540 12b6 0cc0
00000060: e1ac 243d a246 9bbe b624 ecbf fdb3 f23f
00000070: a77e f8be abcb 0c3f ad49 95bf e6db 843f
00000080: 31c6 c2bf a40c 873f bce5 de3f 5058 c7bf
00000090: 0e9e 0d40 c513 08c0 3639 3cbe a14c 9d3d
000000a0: 41c0 fc3f 41d7 20c0 9daf f33f 5b91 0cc0
000000b0: b776 8fbf a4aa 783f a9ec 52bf 43f7 503f
000000c0: 54c1 9dbe 5252 1a3e 93c2 8b3f cc27 95bf
000000d0: 016e 993f 728c 89bf 9b72 3dbf 1f06 1f3f
000000e0: 0c3e 043f e724 1dbf 6fc3 1ac0 7b20 1c40
000000f0: d2c0 1c40 6f53 26c0 131d febf 0e7f fd3f
-2.4876764 2.5308745 -0.20302196 0.04214838 -0.039654218 0.2132713 -0.62414604 0.96116763
1.2787284 -1.1041465 1.2173963 -1.3196583 -0.43599337 0.59922385 -2.388017 2.5705578
1.4232906 -1.3906962 -1.7868258 1.617413 -1.4634862 1.5840106 2.086268 -2.1986127
0.040203933 -0.30327326 -1.8448703 1.8961178 -0.48534128 0.5499827 -1.1663109 1.0379608
-1.5216733 1.0550733 1.7413859 -1.5573826 2.212772 -2.1262066 -0.18381199 0.076806314
1.9746171 -2.513138 1.9037968 -2.1963718 -1.1208104 0.97135377 -0.82392365 0.8162729
-0.3081156 0.15070465 1.0918754 -1.165277 1.1986696 -1.0745986 -0.74003 0.62118715
0.51657176 -0.61384434 -2.4181783 2.4394825 2.4492688 -2.5988424 -1.9852623 1.9804399

downsampling.1.weight f4 [64]
00000000: f668 8740 6832 cb3f c20f c2be 2e05 1140
00000010: 9846 0c40 40f9 043f 7ed1 773f ac29 e83f
00000020: a294 f43f 088b eebc ec98 4cbe 74cc b13f
00000030: 1e95 753e 17c7 f83f b267 8c3e 8d33 913f
00000040: 6a45 063f cbec e33f ae6b 2d40 e6df 24be
00000050: a776 a33f abe7 1a40 13c7 01be cfd5 3140
00000060: d563 503f 53b8 0040 ba14 413f 991d 2f3f
00000070: d2c2 0b40 7d1c 0a40 ba6b 2240 0f6c 0940
00000080: de97 fc3f 842d 6c40 448c 6fbe 57fb 3f40
00000090: bf30 01be 203c 8a40 5768 7b3e c6b4 f23f
000000a0: 0614 ef3f 5f8b 233f 09ec e03f 893e 633e
000000b0: b69b a03f 9b8f b43f 0e32 2f40 c04c b13e
000000c0: 1e4f b63f f69b 323e 1372 0a40 11da 1040
000000d0: 35ef 463f f48b b83f 0962 df3e 4075 99be
000000e0: 728e 9c3d b1bd c23d bebc 633e 7b29 5b3f
000000f0: 0eed 943f 368e 7e3f 3102 0c40 c301 1140
4.2315626 1.5874758 -0.37902647 2.2659411 2.1918087 0.51942825 0.96804035 1.8137717
1.9107859 -0.02911903 -0.1998021 1.3890519 0.23982665 1.9435757 0.27422863 1.1343857
0.5244967 1.7806638 2.7096972 -0.16101035 1.2770585 2.42039 -0.12673597 2.7786748
0.8140233 2.0112503 0.7542225 0.6840454 2.183766 2.1579888 2.537825 2.1472204
1.9733846 3.690278 -0.23393351 2.9997156 -0.12616251 4.3198395 0.24551521 1.8961418
1.8677986 0.6388454 1.7572032 0.22191824 1.2547519 1.4106325 2.73743 0.34628868
1.4242895 0.17442307 2.1632125 2.2633097 0.7770875 1.441771 0.43629482 -0.29972267
0.07644357 0.09508837 0.22239968 0.8561017 1.1634843 0.99435747 2.1876338 2.2657325

downsampling.1.bias f4 [64]
00000000: 70fe 113f ecaa 05c0 460e 5fbf 99a6 78bf
00000010: 9697 a8be b22d b7bf cbca e0bf 1b05 0ec0
00000020: 67a1 6abf 9d8e 8ebf 774a 2cbf 42e3 e6bf
00000030: 0006 95bf 249d 38bf 8bf1 7cbf 3374 5fbc
00000040: 8178 e4bd a6b9 51bf 302c 04c0 939a 41bf
00000050: 4865 14c0 ac09 54bf 5640 39bf ddbb 753f
00000060: f1c8 89be c602 28bf 15a0 56bf 2449 46be
00000070: 9f6b 1cc0 337e e7bf a791 8ebf 1657 83bf
00000080: 292b 0dc0 f80e 4dbf f0d6 5fbf 8bc9 5b3f
00000090: dac8 87bf a10f a33f 8dfb 20bf c298 a8be
000000a0: 7b3f 4fbe 2150 80be 4507 a4bc b869 3dbf
000000b0: c43a 0bc0 528e d1bf 77f6 a63d 8760 0dbf
000000c0: 2ac7 cfbf f365 64bf b2aa 98bf 8eca f8bf
000000d0: 933b 01be b28c 05bf 6bfd 39bf e7c4 9fbf
000000e0: 06fe 17bf d93b 37bf 79b7 24bf e6e1 9bbe
000000f0: c7ea 6dbd ea8d 29be 85c7 8dbf ec1c cbbf
0.57028866 -2.0885572 -0.87131155 -0.9712921 -0.3292815 -1.431082 -1.7561888 -2.2190616
-0.9165253 -1.1137272 -0.67301124 -1.8038104 -1.1642456 -0.7211478 -0.98806065 -0.013638544
-0.11155797 -0.819239 -2.065197 -0.75626487 -2.3186817 -0.8282726 -0.72363794 0.9598978
-0.2691112 -0.6562923 -0.83838016 -0.19363838 -2.4440687 -1.8085388 -1.11382 -1.0260952
-2.2057593 -0.80100965 -0.87437344 0.85854405 -1.060817 1.2739145 -0.62883836 -0.32929045
-0.2023906 -0.25061134 -0.020022998 -0.7398944 -2.1754618 -1.6371558 0.08152478 -0.55225414
-1.6232655 -0.8921806 -1.1927092 -1.9436815 -0.12620382 -0.5216781 -0.7265231 -1.2481965
-0.59371984 -0.71575695 -0.6434246 -0.30445784 -0.05808523 -0.16558042 -1.1076514 -1.5868201

downsampling.3.weight f4 [64, 64, 4, 4]
00000000: fde3 2d3f 7d34 2e3f cc54 503f 6903 713f
00000010: b600 403f 570a 3b3f 3cb7 563f 21d9 703f
00000020: 560b 3b3f 771a 343f 07bf 463f b8b1 5e3f
00000030: 5067 2e3f cdb4 333f 653d 4a3f a36d 533f
00000040: baec 2ebf ec68 2ebf 70ec 28bf b8c1 18bf
00000050: 6656 16bf db0b 13bf b048 1bbf f275 19bf
00000060: b4c4 1abf 593b 14bf 81c0 16bf 020b 1abf
00000070: c246 19bf 551c 19bf 575a 0ebf eb18 16bf
00000080: 7dee 0abf 338e ffbe c95b f9be 7890 f6be
00000090: 0aa6 02bf ef7a 04bf cc99 05bf b854 e4be
000000a0: f7aa fbbe 68e2 05bf c4b8 03bf 1189 03bf
000000b0: 1ab9 0abf 337d 02bf 8700 05bf a5a1 e2be
000000c0: 2f06 4bbf da50 50bf bfcc 44bf 9b8b 4fbf
000000d0: 6fae 41bf 2f85 4ebf 9457 44bf cbd9 4abf
000000e0: 1273 47bf cca8 45bf 5377 48bf ac59 3dbf
000000f0: cb75 3dbf c433 39bf 779c 42bf ec4e 3fbf
00000100: 3b9f c93d 89e9 b13d 48ce ac3d b61c 013e
00000110: 53d8 483d 4120 8b3d 9728 843d e470 443e
00000120: 9d1e dc3d b68d dc3d 0d59 d23d b728 6a3e
00000130: e77e f63d e346 fd3d 5951 483e 328f 8d3e
00000140: 27e2 1abf db1b 08bf 4de5 13bf fbe5 0ebf
00000150: e36d 11bf dfe5 753f 9f97 9dbe b6d5 eabe
00000160: 44d2 03bf ee61 493f bb85 3e3e 6815 cebe
00000170: 63fe 0bbf 1e4b 3b3f d79e 5e3f 23ea bebc
00000180: 1146 053f d03b 073f 02c3 0d3f f64e 103f
00000190: d46d 173f 6a02 153f 3a29 183f 9e33 173f
000001a0: f2d8 113f 400c 153f 7839 243f 82b7 203f
000001b0: ee75 153f df4d 1a3f 664a 1d3f 8de1 1f3f
000001c0: fdaa 393f 537b 2e3f 743b 243f 698b 2a3f
000001d0: 10de 213f 5a4a 253f 2e88 223f 08a7 233f
000001e0: 8cf7 2a3f 27a1 1e3f aae4 293f daf4 233f
000001f0: e4f8 213f a0d5 223f 4fef 223f 28bd 263f
00000200: f694 63bf 1b45 6abf aa14 6abf f6af 69bf
00000210: 3638 6cbf 4013 83bf 126a 86bf 07eb 7cbf
00000220: 19b5 74bf b9e4 81bf 00c1 8abf 895b 8abf
00000230: 9ec3 7dbf a2f7 88bf b118 88bf cc38 8ebf
00000240: ce46 0fbf bb36 14bf c35e 0abf f320 09bf
00000250: 228c 09bf 844e 15bf 80de 16bf 51a7 17bf
00000260: 5b52 13bf 2b1e 19bf ff9f 10bf a586 0bbf
00000270: 4a6e 14bf 71c2 17bf 24e2 0cbf aca8 0cbf
00000280: 5a9d 123f b89d 1a3f e8d3 183f e063 203f
00000290: 195d 1f3f f557 193f 4bbc 123f 3e99 203f
000002a0: 5a4e 213f 4158 163f daa3 1e3f 36ae 1a3f
000002b0: 558b 1e3f 80b0 193f 7c01 1b3f 616e 1b3f
000002c0: 0154 b83e 487e ff3e e4ba f63e 2ee3 ef3e
000002d0: 5865 0b3f e9eb 173f dd0a 123f bb52 1c3f
000002e0: 97be 0c3f 74e7 0d3f 798c 133f 881e 123f
000002f0: 62cc 0d3f 31d6 0c3f 0da5 133f 5608 1d3f
00000300: ed8e 88bd 2869 283f b92f 2b3f 21ee 2b3f
00000310: bd11 283f 60de 253f 4cd2 1e3f fd73 243f
00000320: a814 243f 5ca8 1e3f 0cc7 183f efdb 213f
00000330: d0c5 233f fcf3 243f 6c8c 163f 4424 1b3f
00000340: e0f2 c7bf e7bd c6bf fe32 c2bf 865b c8bf
00000350: 6262 d0bf ae91 ccbf 6b0d c9bf 261d d4bf
00000360: 59cb d7bf ceab d1bf dd42 d1bf 4c55 d8bf
00000370: 3288 e0bf f591 dfbf d386 ddbf e3c9 e4bf
00000380: 0912 1abf 19ec 18bf 84dd 353f 2c58 1c3f
00000390: ede1 283f 8207 203f 1c58 163f f769 143f
000003a0: 419a 203f 6ed5 1d3f 9270 143f 506e 1a3f
000003b0: 87ca 183f 4e92 163f 2ae3 153f 00e9 1a3f
000003c0: 0426 5e3f c937 4e3f b4d6 513f 7b33 813f
000003d0: 28ba 823f 271a 793f 06da 683f 2be6 813f
000003e0: ac92 773f 9251 7a3f 8077 653f 71c7 703f
000003f0: af85 823f bbc2 843f 89ed 833f b5d3 6e3f
0.6792601 0.6804884 0.8137939 0.9414583 0.75001085 0.7306265 0.83873343 0.9408131
0.7306417 0.7035288 0.77635235 0.8698993 0.6812639 0.70197755 0.7899993 0.8258917
-0.68329966 -0.6812885 -0.65985775 -0.5967059 -0.58725584 -0.57439965 -0.6065779 -0.59945595
-0.60456395 -0.5790306 -0.5888749 -0.60173047 -0.5987359 -0.59808856 -0.556066 -0.5863177
-0.54270154 -0.49913177 -0.4870284 -0.48157096 -0.51034606 -0.5175008 -0.521878 -0.44595885
-0.49153873 -0.52298594 -0.51453805 -0.5138102 -0.5418869 -0.5097229 -0.5195393 -0.4426395
-0.7930631 -0.8137337 -0.7687492 -0.81072396 -0.7565679 -0.8067197 -0.76696134 -0.79238576
-0.7790996 -0.7721069 -0.78307074 -0.73964953 -0.7400786 -0.72344613 -0.76019996 -0.747298
0.09844824 0.086871214 0.084377825 0.12608609 0.049034428 0.06793261 0.064530544 0.1918369
0.107480265 0.10769217 0.10270891 0.22867094 0.120359235 0.12367036 0.19562282 0.27648312
-0.6050133 -0.53167504 -0.5777176 -0.5581967 -0.568083 0.9605388 -0.3077974 -0.45866174
-0.51492715 0.78665054 0.18605702 -0.40250707 -0.5468504 0.73161495 0.8696112 -0.023305004
0.5206004 0.5282564 0.55375683 0.56370485 0.5915196 0.5820681 0.59437907 0.59063137
0.5697166 0.58221817 0.6415019 0.6278001 0.5838307 0.6027507 0.6144165 0.6245354
0.7252653 0.6815693 0.6415322 0.66618973 0.63229465 0.64566576 0.63489044 0.63926744
0.66783977 0.6196465 0.6636454 0.6404549 0.632704 0.63607216 0.63646406 0.6513238
-0.8889917 -0.91511697 -0.9143778 -0.9128412 -0.9227327 -1.024025 -1.050112 -0.98796123
-0.95588833 -1.0147926 -1.0840149 -1.0809184 -0.99126613 -1.0700572 -1.0632535 -1.1111083
-0.55967414 -0.5789601 -0.54050845 -0.535659 -0.5372945 -0.5832293 -0.5893326 -0.5923968
-0.5754754 -0.5981166 -0.56494135 -0.54502326 -0.5798079 -0.5928107 -0.55032563 -0.5494487
0.5727135 0.6039691 0.59698343 0.626524 0.6225143 0.59899837 0.5731856 0.6273383
0.6301018 0.58728415 0.6196877 0.60422075 0.61931354 0.6003494 0.6054914 0.607153
0.3600159 0.49901032 0.4818946 0.46853012 0.54451513 0.59344345 0.57047826 0.61063737
0.5497832 0.55431294 0.5763622 0.57077837 0.5538999 0.5501433 0.5767372 0.61340845
-0.06667886 0.65785456 0.66869694 0.6716023 0.65652066 0.6479244 0.6203964 0.64239484
0.6409402 0.61975646 0.5967872 0.6322622 0.6397371 0.6443479 0.58808017 0.6060221
-1.5620995 -1.5526704 -1.5171812 -1.5652931 -1.6280024 -1.5981958 -1.570722 -1.6571395
-1.6858932 -1.6380556 -1.634853 -1.690103 -1.7541564 -1.7466418 -1.730677 -1.7874111
-0.6018377 -0.59735256 0.7104113 0.6107204 0.65969735 0.62511456 0.58728194 0.5797419
0.6273537 0.6165379 0.5798427 0.60324574 0.5968403 0.58816993 0.5854975 0.6051178
0.8677676 0.8055387 0.81968236 1.0093836 1.021306 0.9730553 0.9095768 1.0148367
0.9670818 0.97780716 0.8963547 0.94054323 1.0197047 1.0371927 1.0306865 0.9329179

downsampling.3.bias f4 [64]
00000000: 0762 21bd feef 203d d1d9 36bf fbaa 363f
00000010: fc50 983f 2bf0 98bf 70f9 fe3e f604 0dbf
00000020: ac2e a8be f601 953e 28e1 2dbf 002c 373f
00000030: 70df 90be 266c 6e3e e4bf ebbe f201 ee3e
00000040: af99 1bbf 2007 253f 0695 dbbe ea42 d23e
00000050: 27db 663f ed0f 64bf 1688 0abf 75a5 0b3f
00000060: eaff 99bf 84b7 953f f935 0f3f 0168 12bf
00000070: 9e33 4ebf 80a0 473f 4213 543f 3c4b 47bf
00000080: 2d8f 19bf aab2 133f f5a5 303f c344 3cbf
00000090: bab2 a3be e11e b43e 7215 a63e 2008 9fbe
000000a0: 889f 173f ed3f 18bf fae5 2a3f 893b 29bf
000000b0: 3fe0 233f 9f67 1abf 81d3 c73e 8dc9 d8be
000000c0: 799c 12bf 12c0 193f 4ff1 213f e2ab 1ebf
000000d0: d211 0e3f 9bef 0bbf 209f 983f 109f 9fbf
000000e0: bb2c 143f eeac 07bf c105 f3be a814 e43e
000000f0: 501f 0bbf 20a2 013f 21f2 06bf 1aab 063f
-0.039400127 0.039291374 -0.7142611 0.71354645 1.1899714 -1.1948293 0.4979968 -0.55085695
-0.32848108 0.2910306 -0.67921686 0.71551514 -0.2829547 0.23283443 -0.46044838 0.4648586
-0.6078138 0.64463997 -0.42887133 0.41066676 0.9017815 -0.890868 -0.541139 0.5454934
-1.2031224 1.169663 0.5594173 -0.5718995 -0.8054751 0.7797928 0.82841885 -0.77849174
-0.59984094 0.57694495 0.6900323 -0.7354242 -0.31972295 0.3517981 0.32438236 -0.31060886
0.592278 -0.59472543 0.66757166 -0.6610647 0.6401405 -0.60314363 0.39028552 -0.4234127
-0.5727001 0.600587 0.6325883 -0.6198102 0.5549594 -0.54662484 1.1923561 -1.2470417
0.57880753 -0.52998245 -0.47465327 0.4454701 -0.54344654 0.5063801 -0.5271321 0.5260483

downsampling.4.weight f4 [64]
00000000: 6092 0c3f e671 603e 2e38 953e d882 bb3f
00000010: ce51 1740 0c53 a540 24ec b73f aee1 0f40
00000020: ab80 dd3f 4bce 2c40 d363 103e 32f8 b03f
00000030: 9f7e 55bd 8058 8c3f 5bbc 0740 edad 933f
00000040: bcd8 5c3f 3f00 7a40 e7c6 39bf 0fea c23f
00000050: 509b de3f e8ff 0040 4950 0e40 0128 973f
00000060: e630 9a40 df46 933f 85ed a03f 9c29 bf3f
00000070: 4915 7240 8317 c13f ae83 5c3f e284 cc3e
00000080: e586 cc3e f3f7 c83f 1331 203f e5eb b83f
00000090: 0e77 963d cbce d93f 03e1 0a40 f678 803f
000000a0: c3a5 473e 2085 cc3e 6bd3 a03f 7123 e63e
000000b0: 2f1b 413c e239 993f 4aff b53f 62c9 1540
000000c0: be14 893f fdfd 0bbd e96f 3840 ade0 a23f
000000d0: ada4 3d40 db37 ac3f 3c11 fb3f 135a 7c3f
000000e0: a29b c83f fb84 cc3e 05b6 aa3f e836 8e3d
000000f0: 5cca b6bc 2542 733f d586 cc3e 4564 a33f
0.5491085 0.21918449 0.29144424 1.4649305 2.364368 5.1663876 1.4368939 2.2481494
1.7304891 2.7000911 0.1410058 1.3825743 -0.05212271 1.0964508 2.1208713 1.1537453
0.8626821 3.906265 -0.72569126 1.5227679 1.7391148 2.0156193 2.2236502 1.1809083
4.818469 1.1506003 1.2572485 1.4934573 3.7825491 1.50853 0.8613843 0.39945132
0.39946666 1.5700668 0.6257488 1.4446989 0.07346927 1.7016233 2.1699836 1.0036914
0.19496827 0.39945316 1.256452 0.44948915 0.011786266 1.197079 1.4218533 2.3404164
1.0709455 -0.03417777 2.8818305 1.2724816 2.963176 1.3454546 1.9614635 0.9857494
1.5672495 0.39945206 1.3336798 0.06944066 -0.02231329 0.95022804 0.3994662 1.2764975

downsampling.4.bias f4 [64]
00000000: a94c ac3e 8f9b 6ebf 6b15 85bf c3b2 ffbf
00000010: 8c27 63bf 5316 2d3f 50b6 a5bf e7a9 81bf
00000020: 04da 873e d37a c2be 83c3 3cbf 779a 17c0
00000030: 9901 80bf c87f 4cbf c75a f4bf dbf7 81bf
00000040: 615c fdbf 4077 aabf 4d06 50bf 7d31 32bf
00000050: 2597 f1bf 55a0 f9bf fb79 d7be aacd 0ac0
00000060: 1f36 f23e 80d6 2bbf 9b32 fabf 0e06 a7bf
00000070: bd30 49be 2f6d a0bf cbae 26bf 90bd 19bf
00000080: 49bd 19bf d1e6 16bf e506 5abf c824 9cbf
00000090: 0c8e 96bf 2008 2b3d c9de 93bf 4424 eabe
000000a0: 67ce 72bf 87bd 19bf 0b51 243f 5a15 ddbf
000000b0: 35de 83bf 9d3d 8cbf b7d4 11c0 a923 0dc0
000000c0: a01a 0bbe 8590 86bf 8c08 b7bf 6400 11c0
000000d0: 43e8 d2bf fc0c 8ebf 02cc 2ec0 3b7c 46bf
000000e0: 876e a6bf 82bd 19bf 94a7 12c0 11ca bbbf
000000f0: 978a 9fbf ca72 02c0 95bc 19bf 53f3 8dbf
0.33652237 -0.93206114 -1.0397161 -1.9976429 -0.8873222 0.6761219 -1.2946262 -1.0129975
0.2653352 -0.37984332 -0.7373583 -2.3688028 -1.0000488 -0.7988248 -1.9090203 -1.0153764
-1.9793817 -1.3317642 -0.81259614 -0.69606763 -1.8874251 -1.9502054 -0.4208525 -2.1688027
0.47306916 -0.67124176 -1.9546694 -1.3048723 -0.19647498 -1.253332 -0.6511046 -0.60054874
-0.6005445 -0.5894595 -0.8516677 -1.2198725 -1.1762099 0.041755795 -1.1552364 -0.45730793
-0.94846195 -0.6005482 0.6418616 -1.7272141 -1.0302187 -1.0956303 -2.278608 -2.2053015
-0.13584375 -1.0512854 -1.4299483 -2.2656488 -1.6477131 -1.1097713 -2.7312016 -0.7753331
-1.300248 -0.6005479 -2.2914782 -1.4671041 -1.2464169 -2.0382562 -0.6005338 -1.1089882

downsampling.6.weight f4 [64, 64, 4, 4]
00000000: dbe1 02bf 7bbd c73e e294 2cbf 6603 ffbe
00000010: 50a9 af3e 5813 433e 4f2e 2a3e 331e 823e
00000020: c702 bd3e 7114 4c3e 619a 453e ca34 833e
00000030: c4d3 fc3e 6669 a63e 81fe d03e bf94 d43e
00000040: 1aec 043f 84cb a13e 7886 24bf c8c7 1abf
00000050: 653a 093f 20a3 013f 7b2c 1dbf 731c 2cbf
00000060: 7902 163f 1477 193f 2f29 043f 6b33 0e3f
00000070: 5ab4 103f e14c 193f 05ba 193f f71b 143f
00000080: 73df 133f badc 1b3f 54fe 0f3f e7c8 183f
00000090: ef18 143f a022 0f3f 1869 133f a639 163f
000000a0: 1863 1d3f dd10 163f 8f61 103f 006b 183f
000000b0: 0027 153f 77f7 133f 75c8 1e3f aa61 143f
000000c0: 45d3 ad3f f56e 713f 88cd c13f 9d9a 0840
000000d0: 3e2c 4b3f c41b d33e 131e 783f 0e4e d33f
000000e0: aa87 563f 07e5 ba3e 1fc0 743f 904a df3f
000000f0: e2ca cb3f 1f73 a13f e734 f13f c6da 2a40
00000100: 7658 4fbe 076c 243f d9e7 2f3f 707e 1e3f
00000110: cbe9 15bf c302 25bf c6d1 b33e 3666 c73e
00000120: e690 11bf b5d6 3cbf b298 ae3e fd92 ce3e
00000130: 1273 0dbf 2d46 2fbf 68be a63e e181 e53e
00000140: e9ba 1240 e9d3 1540 b35e 1a40 da45 0c40
00000150: c734 0440 9eb5 0d40 e866 1340 52bc fb3f
00000160: a45c 1540 fbfc 2a40 8509 2940 77e2 1640
00000170: 2207 0740 69de 1940 19f1 1040 687f 0040
00000180: a274 9f3f bab0 863f 4cdb 913f 5124 b53f
00000190: bd12 683f ef0a 303f 4a55 4e3f 8e46 823f
000001a0: c393 583f 971b 2d3f 2421 483f 18b3 823f
000001b0: 9602 903f 2cd2 873f cce8 923f fdb6 b03f
000001c0: 2c8f 54bd 8479 153d fd48 85be b5b5 0dbe
000001d0: c69d 2abe 231b d23c c27f 8fbe ee75 a7be
000001e0: 22c4 7bbe 0c89 e1bc 2c76 bebe 89b2 a0be
000001f0: bb3b 45be deaa 5e3d 20bc a5be 85c6 2dbf
00000200: fa68 823f debe 003f a68f 0f3f 03b3 603f
00000210: c5cf 89bd a181 04bf 443d ffbe cc5d e2bd
00000220: 9bf5 17be 7f27 0fbf 6159 ffbe a7eb b2bd
00000230: 05d5 de3e e96f d7bc 0965 fb3d f4ae 103f
00000240: fe5d b33f 4b0d 803f e5ce 8e3f 79e5 b53f
00000250: 7002 583f 3ce5 0c3f e828 393f fb00 873f
00000260: 84f7 bdbe bfd1 2ebe c30d 2f3f 4a50 7f3f
00000270: d81f 7c3e 73d7 833f 0af6 973f 2d7d c33f
00000280: a11e 20bf e520 143f 7fe6 1f3f 4524 143f
00000290: 95fa 11bf 594c 21bf e48c 143f 2071 153f
000002a0: 0416 21bf 5d11 13bf 7b76 1fbf 3e99 133f
000002b0: 024f 1ebf 58ce 16bf bd55 1bbf 690c 213f
000002c0: 9868 9f3e 6727 b63e c496 cf3e 546a 2a3f
000002d0: 0b6d 943e 7221 ad3e 81ae d43e da25 293f
000002e0: 6339 7a3e d80c 813e 1030 943e 2b1b 0e3f
000002f0: dd51 f93e d7d7 173f 7b4e 1f3f 656e 4a3f
00000300: 7aca 153f 146b 133f 33e5 193f 1735 173f
00000310: 97e9 173f 3dcd 1a3f 867b 153f 6d20 143f
00000320: e000 123f fd5a 1d3f e178 163f f0a7 1f3f
00000330: 07fa 183f 8e6e 1f3f 4cba 213f ff6e 133f
00000340: 881a 043f 2617 f63e dcc5 ff3e d99e 013f
00000350: a244 023f 800e f63e 5c1a fd3e b473 f83e
00000360: 6cf9 ec3e e78b fc3e 27d4 f53e b8e6 063f
00000370: 11af e03e 3062 e33e 3641 fe3e d989 053f
00000380: 1b91 06bf 1d03 45bf 63fc 76bf 5e3e 8abf
00000390: d06f f1be 307c 30bf 6a3b 67bf 3b9e 85bf
000003a0: c045 bcbe 569c 31bf 31aa 63bf 959a 7dbf
000003b0: e026 dfbe 7d63 2bbf 4efd 88bf aa7a acbf
000003c0: 8521 03be 1d7f 64be 168e 6e3f 7702 a73f
000003d0: 9579 f1be 197d 12bf ca42 0bbf 19f6 223f
000003e0: 6774 09bf 7a63 25bf 2e07 19bf 5aea 10be
000003f0: ada1 99be 5b0a acbe 5206 bebd 42f4 013f
-0.5112588 0.3901175 -0.6741468 -0.4980728 0.34308863 0.19050348 0.16619228 0.25413665
0.3691618 0.19929673 0.19297172 0.25626212 0.49380314 0.32502288 0.4081917 0.41519734
0.5192276 0.31600583 -0.64267683 -0.6046109 0.5360473 0.50639534 -0.61395997 -0.6723091
0.5859752 0.59947324 0.5162534 0.5554721 0.56525195 0.5988293 0.6004947 0.5785517
0.5776283 0.60883677 0.5624745 0.5968155 0.57850546 0.5591221 0.57582235 0.58681715
0.6147933 0.5861948 0.5639886 0.5953827 0.58262634 0.57799476 0.62024623 0.57961524
1.3580099 0.9430993 1.5140848 2.1344368 0.79364383 0.4123212 0.9692089 1.6508195
0.83800757 0.3650286 0.95605654 1.744463 1.592129 1.2613257 1.884427 2.6696029
-0.20248589 0.64227337 0.68713146 0.6191168 -0.58559865 -0.6445734 0.35120982 0.38945168
-0.5686172 -0.73765117 0.34100872 0.40346518 -0.5525371 -0.68466455 0.32567143 0.44825652
2.292658 2.341059 2.41203 2.1917634 2.0657213 2.21421 2.303156 1.9666846
2.3337793 2.6716907 2.641206 2.3575723 2.1098104 2.4041998 2.2647154 2.0077763
1.2457469 1.0522683 1.1395049 1.4151708 0.9065359 0.68766683 0.8059889 1.0177782
0.84600466 0.67620224 0.7817557 1.0210905 1.1250789 1.0611014 1.1477294 1.3805844
-0.05189435 0.03649284 -0.26032248 -0.13838847 -0.16661748 0.025647705 -0.2802716 -0.3270716
-0.24586537 -0.02753117 -0.37199533 -0.31386212 -0.19261067 0.05436217 -0.3237009 -0.6788104
1.0188286 0.5029124 0.56078565 0.8777315 -0.06729082 -0.517603 -0.4985143 -0.110530466
-0.14839785 -0.5591964 -0.49872878 -0.08736353 0.43521896 -0.02629848 0.1227513 0.5651696
1.4013059 1.0004057 1.1156889 1.4210654 0.8437872 0.55037284 0.72328043 1.0547174
-0.37102902 -0.170722 0.68380374 0.99731886 0.24621522 1.0300125 1.187196 1.5272576
-0.62546736 0.57862693 0.62461084 0.5786784 -0.5702298 -0.6300712 0.5802748 0.5837574
-0.6292422 -0.5744837 -0.6229016 0.57655704 -0.61839306 -0.58908606 -0.606777 0.6290956
0.31134486 0.35576937 0.40544713 0.66568494 0.28989443 0.3381458 0.41539386 0.6607338
0.24435954 0.25205112 0.2894292 0.55510205 0.4869527 0.5931372 0.62229127 0.790747
0.5851208 0.57585263 0.60115355 0.59065384 0.59340805 0.6046942 0.58391607 0.5786198
0.57032585 0.6146696 0.58778197 0.6236563 0.5975651 0.6227807 0.6317489 0.5759124
0.51602983 0.48064536 0.49955642 0.5063301 0.50885975 0.48057938 0.49434173 0.48525774
0.46284044 0.49325487 0.48013422 0.526958 0.43883565 0.4441085 0.49659127 0.52163464
-0.52565163 -0.76957875 -0.9647886 -1.0800283 -0.4715562 -0.68939495 -0.90325034 -1.0438913
-0.36771965 -0.69379175 -0.88931566 -0.99064 -0.43584347 -0.6694868 -1.0702302 -1.3474934
-0.12805755 -0.22314115 0.93185556 1.3047627 -0.47163072 -0.57222134 -0.5439879 0.63656765
-0.5369324 -0.64604914 -0.5977658 -0.14151898 -0.3000616 -0.3360165 -0.09278549 0.5076333

downsampling.6.bias f4 [64]
00000000: 4884 e63e 1bc2 383f fce2 44bf 0d01 98be
00000010: 7d6a 1f3f 2d31 19bf 714c 2c3f 285c 1bbf
00000020: 22c0 393f 13e7 96bf f01f 1d3f 1025 2cbf
00000030: da30 00bf 5f6f 3dbf 53e6 0b3f 0861 08bf
00000040: 3cb9 18bf 7e05 1e3f cd50 253f 9f55 283f
00000050: 19a9 1fbf efbe 43bf ea44 0dbf f3bd 163f
00000060: 7fe1 063f 0ffc 513f 02f5 ae3f 92d6 81bd
00000070: b777 14bf 77b2 143f 1679 193f 1cf5 16bf
00000080: a7b6 41bf 5bfe 12bf 45e3 783f 83ee bfbf
00000090: 8ac3 3a3f 83c1 133f 866d 82bf 5333 c2be
000000a0: 835e fb3e f00b 373e e9b9 f33f 1f9a f7be
000000b0: 87eb e73e eb43 313f ff07 28be 31aa 363e
000000c0: 58f2 ebbe 9e5d 193f 41f0 f2be c055 7fbe
000000d0: b4b5 003f c7a5 323f 46e5 6f3e 37fc a03f
000000e0: 51c5 213f 51f1 063f 8419 83bf 3212 263e
000000f0: 83c3 4f3e 94e3 c03e bc1d fe3d 5a35 b0be
0.45022798 0.7217118 -0.7690885 -0.29688302 0.62271863 -0.5984066 0.6730414 -0.60687494
0.72558796 -1.1789268 0.6137686 -0.6724405 -0.5007454 -0.73998064 0.5464832 -0.5327306
-0.59657645 0.6172713 0.6457642 0.6575565 -0.623674 -0.76463217 -0.5518328 0.5888359
0.5268783 0.82025236 1.366852 -0.06339754 -0.5799517 0.58084816 0.5995039 -0.5896776
-0.7566933 -0.57419366 0.97221786 -1.4994663 0.7295462 0.5771715 -1.0189674 -0.37929782
0.49095544 0.17875648 1.904111 -0.48359773 0.4529688 0.6924426 -0.164093 0.1783836
-0.4608333 0.59908473 -0.47448924 -0.24935055 0.50277257 0.69784206 0.23427305 1.257697
0.63191706 0.5271197 -1.0242162 0.16217878 0.20289426 0.37673628 0.12408015 -0.34415704

feature.func.conv1.weight f4 [64, 65, 3, 3]
00000000: 31f3 1b3f 462b 1f3f e659 1f3f 4269 1b3f
00000010: 0722 183f 0b28 293f 7107 233f e2fe 2c3f
00000020: 73f8 403f 44dc 0c3f c261 193f d744 1c3f
00000030: d853 27bf 3d64 0fbf 1976 0cbf 1a11 21bf
00000040: 685d 15bf 2334 0ebf 4b1c 083f 62a5 113f
00000050: c204 0d3f 1f9a 133f 121a 1c3f 12b8 183f
00000060: e876 0f3f b9a1 133f a5e0 093f ff2e 0ebf
00000070: 32d4 05bf 8441 21bf 29a2 1fbf 37a4 dbbe
00000080: 48f0 14bf 938c f33e 3ecb 113f ba00 0e3f
00000090: 1e49 3d3f b1b1 dabe cc4e 09bf 5df1 943f
000000a0: e20c 0abf 51ba 09bf d5d3 babe d937 09bf
000000b0: 68a6 01bf 850e 12bf 65f3 11bf 4a47 19bf
000000c0: f0b6 20bf 3232 12bf 2923 20bf 719d 1dbf
000000d0: ee28 1ebf 9b53 1cbf 2e38 1a3f f366 1d3f
000000e0: 4110 183f 1cde 223f 915c 133f 2a36 163f
000000f0: 19d3 203f 6846 243f e420 243f 0656 f93e
00000100: 2493 0a3f cc34 0f3f b220 033f d21f 123f
00000110: 15b3 0f3f 2fda f83e c950 013f c8f8 003f
00000120: 7594 f6be bc1f fdbe e5a2 cdbd 59c1 693f
00000130: 6dc3 353f 3db8 5a3f 5de6 513f a94e 2c3f
00000140: 97e3 323f 9da5 31bf 56f5 29bf 4c0f 3bbf
00000150: f0ab 7abf d849 25bf fa6a 29bf efb4 2cbf
00000160: 582a 13bf ab66 19bf 353a c43e b320 2dbf
00000170: f94a 14bf dbb5 05bf e9e6 0cbf 22e3 17bf
00000180: b39b 17bf 6b7a 14bf 6ea6 0dbf 388b 143f
00000190: 11f7 1a3f 529f 183f e6ac 103f 1539 173f
000001a0: b2e2 0e3f f052 0d3f 003d e93e 29a2 093f
000001b0: 15a2 0fbf ca2c f7be 94da 12bf 0e29 10bf
000001c0: 043a dcbe 6481 173f a12e 073f 7859 153f
000001d0: f007 953e 43c8 20bf 0719 22bf c299 26bf
000001e0: e0c4 37bf 2cb0 1abf 674e 27bf 37d4 50bf
000001f0: 3806 2cbf e155 23bf b729 123f 4027 143f
00000200: e008 223f 6f21 183f bd98 173f 6993 223f
00000210: 12fe 1e3f a2ee 173f f08b 213f ca3b 12bf
00000220: fd6c 1bbf 1146 2fbf 00d7 f63e 4eb9 ff3e
00000230: df32 a7be 02f4 053f 1b95 063f 924f ed3e
00000240: 5538 263f b5c0 153f 1f36 133f 7542 193f
00000250: 9964 193f d3df 1a3f 5d99 173f 82c6 203f
00000260: 9162 113f 14c8 243f c86c 293f 2a6f 253f
00000270: 59db 243f 2e53 353f 72c6 2b3f c322 253f
00000280: a932 363f a0f5 1f3f 0c76 2e3f 412d 1e3f
00000290: 6d15 3e3f a035 2b3f 72e6 133f 18c8 203f
000002a0: 733c 183f ed4c 223f 175b 1a3f ce2d 203f
000002b0: 0d0e 1f3f 445c 263f a4f6 48be c720 18bf
000002c0: aba9 1ebf 6350 1ebf 74f3 12bf af0a 12bf
000002d0: 90b9 103f e93b 1a3f 2fcf 0a3f 824b 143f
000002e0: 7a6a 163f 86a8 0b3f 7d1d 0d3f 8737 1a3f
000002f0: d04d 173f b32d 77bf 91c4 2fbf 5d93 31bf
00000300: 30eb c93e cd00 6abf 7185 30bf 172e 52bf
00000310: 4ac3 36bf 4d04 39bf 9359 0a3f 4f7f 0f3f
00000320: 87c7 1c3f 0289 0a3f 1b69 0a3f 1399 143f
00000330: 35f0 083f 8575 0f3f 2196 073f adcc 1a3f
00000340: 1c2d 173f 7bf1 1d3f 5475 1a3f 3f0f 163f
00000350: 6053 1a3f f3bb 1c3f 6631 253f 2603 273f
00000360: f116 0f3f 440d 163f d14d 123f 8a7f 1c3f
00000370: edb2 103f a493 113f 32b8 1c3f 60ff 1d3f
00000380: 0ed7 1e3f b60e 243f 07f9 1e3f 98e4 1e3f
00000390: 6c50 263f 09ef 1e3f 535c 1c3f 9585 153f
000003a0: 0c89 163f 5514 263f ff30 1a3f 23a8 243f
000003b0: f730 1d3f 5365 1f3f d260 243f c69d 1f3f
000003c0: 11f9 293f fc7e 263f 6bcd 263f a5ea 35bf
000003d0: 3896 31bf 757a 12bf e73a 133f dcfb 1f3f
000003e0: 9307 243f 3a99 163f f852 233f 3031 223f
000003f0: 7218 0f3f d640 143f 6b52 0e3f d9bb 153f
0.60917956 0.62175405 0.6224655 0.60707486 0.5942692 0.66076726 0.6368323 0.6757642
0.75379103 0.550236 0.5991479 0.6104254 -0.6536231 -0.56012326 -0.548677 -0.6291672
-0.5834565 -0.55548304 0.5316817 0.5689298 0.55085385 0.57657045 0.6097728 0.5965587
0.5604081 0.57668644 0.53858405 -0.5554046 -0.5227691 -0.62990594 -0.6235681 -0.42898723
-0.5817914 0.47568187 0.5695075 0.5546986 0.7393969 -0.42713693 -0.5363586 1.1636158
-0.5392591 -0.5379992 -0.3648974 -0.5360084 -0.5064454 -0.57053405 -0.57012016 -0.59874403
-0.6277914 -0.5710784 -0.6255365 -0.6156836 -0.61781204 -0.6106507 0.60241973 0.61485213
0.593998 0.6362016 0.5756312 0.586764 0.6282211 0.6416993 0.6411269 0.48698443
0.5413077 0.55939937 0.51221764 0.57079804 0.5613263 0.4860396 0.50513893 0.5037961
-0.4816014 -0.49438274 -0.10040835 0.9131065 0.7100132 0.85437375 0.8199213 0.67307526
0.69878525 -0.6939333 -0.6638998 -0.73070216 -0.97918606 -0.645658 -0.6617886 -0.6746358
-0.57486486 -0.59922284 0.38325658 -0.6762802 -0.579269 -0.52230614 -0.5503984 -0.5933095
-0.59221953 -0.57999295 -0.55332077 0.5802493 0.60533243 0.59618104 0.5651382 0.59071475
0.5581466 0.5520468 0.45554352 0.5376306 -0.5610669 -0.4827636 -0.57364774 -0.56312644
-0.43013012 0.5918181 0.52805525 0.58339643 0.29107618 -0.62805575 -0.6331944 -0.65078366
-0.7178478 -0.60425067 -0.6535401 -0.81573814 -0.6719699 -0.63802916 0.570949 0.5787239
0.6329479 0.59426016 0.59217435 0.6350618 0.6210643 0.593485 0.6310415 -0.5712248
-0.6071318 -0.6846629 0.48210907 0.49946064 -0.32656 0.5232545 0.52571267 0.4634977
0.64929706 0.5849717 0.5750446 0.5986703 0.59919125 0.6049778 0.5921839 0.628029
0.56791025 0.64367795 0.6618161 0.6462275 0.643972 0.7083005 0.6709968 0.6450617
0.7117105 0.6248417 0.68148875 0.617878 0.74251443 0.668787 0.57773507 0.6280532
0.5946724 0.6339863 0.6029524 0.6256989 0.62130815 0.64984536 -0.19625336 -0.59425014
-0.6197764 -0.6184141 -0.5740273 -0.5704755 0.56533146 0.60247666 0.5422239 0.57927716
0.5875622 0.5455402 0.5512312 0.6024098 0.5910311 -0.96554106 -0.6865931 -0.69365484
0.39437246 -0.9140747 -0.68953615 -0.8210158 -0.7139174 -0.7227219 0.5404293 0.5605363
0.61241955 0.5411531 0.5406663 0.5804607 0.53491527 0.56038696 0.52963454 0.6046856
0.59053206 0.61696595 0.6033528 0.58617014 0.6028347 0.6122429 0.645285 0.6523918
0.5589438 0.5861399 0.5714999 0.6113211 0.5652302 0.56865907 0.6121856 0.61717796
0.620469 0.6408495 0.62098736 0.62067556 0.64966464 0.6208349 0.61078376 0.58406955
0.58802867 0.64874774 0.6023101 0.64319056 0.6140284 0.62263983 0.64210236 0.6235012
0.6639567 0.6503751 0.6515719 -0.71061164 -0.6936984 -0.57218105 0.5751175 0.6249368
0.6407406 0.58827555 0.63798475 0.63356304 0.55896676 0.5791143 0.5559451 0.5848976

feature.func.norm1.weight f4 [64]
00000000: 3892 e83f a549 f03f b9be dc3e 5a97 223f
00000010: 2f1e d43f 0813 1c40 3d01 11be c41a dc3f
00000020: 6b37 c93f 73fe 0f40 5009 c33f bc12 d83e
00000030: 9f59 0a40 1b1f 953e 3f5e 5c40 9408 2c40
00000040: 2a97 283f 05a0 0140 dd87 c33f b66f 3f3f
00000050: f6bd e03f cceb 493f 9728 c73f eee7 1840
00000060: 76f3 bf3f 3dab c83e 0721 ac3f cc4c 0d3f
00000070: da39 c03f 56d6 c63f 815d 0d40 5de9 2d3f
00000080: f4d9 813f 8a21 6d3f c7fe 6940 17ef 163f
00000090: b3ff 993d 93d3 e83f b469 943c 8ff7 143f
000000a0: 15d2 1e3f 8857 c83e 765b 703f c344 d83f
000000b0: e2eb 5b3f 72db 053f fbce 8dbe e182 0dbe
000000c0: dd70 683f 00df ef3f e945 d13f d4d0 413f
000000d0: 2efb f13f 2b30 1640 01b5 4a40 4207 163f
000000e0: b91c 2d3f 9aa4 4e3f 74d4 83be e14c b03f
000000f0: 953b 8a3f ee22 e6bf 6171 e73f 6037 1a3f
1.8169622 1.8772475 0.4311426 0.63512194 1.6571711 2.4386616 -0.14160629 1.7195668
1.5720037 2.2499053 1.5237217 0.42201793 2.16172 0.29125294 3.4432523 2.6880236
0.6585566 2.0253918 1.5275837 0.7477983 1.7557971 0.7887542 1.5559262 2.3891559
1.4996173 0.39193144 1.3447579 0.5519531 1.5017655 1.553416 2.208832 0.6793421
1.0144639 0.926293 3.6561754 0.5895857 0.07519474 1.8189567 0.01811681 0.58190244
0.6203931 0.3912928 0.9388956 1.6895984 0.85906804 0.5228797 -0.27696976 -0.13819458
0.90797216 1.8739929 1.634946 0.7570927 1.8904779 2.34669 3.1672976 0.58604825
0.6762195 0.8071991 -0.25748026 1.3773462 1.0799433 -1.797941 1.8081475 0.60240746

feature.func.norm1.bias f4 [64]
00000000: 8f5f 1d3f c963 023f 7f38 4abf fd17 ee3e
00000010: b5c5 dc3e 0203 09bf a36b 30bf d56e 0b3f
00000020: 165f 95bf 6100 e3be 359f f73e 77ff 17bf
00000030: 23f1 01bf 9112 44be 4df8 2d3f 584f 6f3e
00000040: 420b 923e 0abb 06bf 3ebe 0dbf fd42 08bf
00000050: 14e3 113f 9b0a 2c3f 28e9 e8be d9d2 29bf
00000060: aa2a f6be aa28 14bf b84d dfbe 1d2e 08bf
00000070: b23b 25bf 5696 e53e caad ccbe 2c50 2fbf
00000080: 8cca 2fbf 0267 16bf da08 f4be 3f95 053f
00000090: e292 28bf bb76 2cbf 19b6 cb3e c744 a3be
000000a0: c6ed 85bd 688e 143f fbe5 0dbf 08f6 ef3d
000000b0: d3ab 433f a8d7 b3be d441 1f3f 7da4 043f
000000c0: 95f2 5dbf 09b4 07bf 7dbb 093f 8187 403f
000000d0: 430e 063f 3b56 18bf 818f 00be 48a9 2bbf
000000e0: 7cfe fb3e 8378 023f 642c 6f3d fe6f 22bf
000000f0: 7c66 01bf 5959 e9be cfce fe3e 74b2 393f
0.61473936 0.5093351 -0.78992456 0.46502677 0.43119588 -0.53520215 -0.6891424 0.5446599
-1.1669643 -0.44336227 0.48363653 -0.59374183 -0.5075857 -0.19147708 0.67957 0.23370111
0.28524214 -0.5262915 -0.5536841 -0.53227216 0.5698712 0.6720368 -0.45490384 -0.66337353
-0.48079425 -0.5787455 -0.43613982 -0.53195363 -0.6454421 0.4484126 -0.3997634 -0.6848171
-0.68668437 -0.5875093 -0.47663003 0.52180856 -0.65849125 -0.6736867 0.39787367 -0.3188841
-0.06539492 0.58029795 -0.5542905 0.117168486 0.7643406 -0.3512547 0.6220982 0.5181349
-0.86698276 -0.53009087 0.5380171 0.7520676 0.5236551 -0.5950658 -0.12554742 -0.6705518
0.49217594 0.50965136 0.058391944 -0.63452137 -0.50547004 -0.4557598 0.49767157 0.7253792

feature.func.conv2.weight f4 [64, 65, 3, 3]
00000000: 68cb 0fbf 5999 02bf 7e4a 1ebf 460d 1bbf
00000010: a906 23bf d8f7 22bf e7d9 12bf 7a3e 22bf
00000020: e8cd 1fbf a482 1bbf 360c cf3e d8e0 1c3f
00000030: 7a91 14bf b286 a73e 8ca9 1e3f b419 17bf
00000040: 249d 21bf dbd6 133f bb47 153f 72d6 203f
00000050: ee03 1e3f b64b 1e3f 3fa5 1b3f 7aef 1fbf
00000060: c6db 223f 402c 153f 339f 1bbf 01e0 223f
00000070: f92c 223f 13da 02bf 89f3 1e3f 4056 1e3f
00000080: af9a 173f 11af 1f3f 454d 10bf 0983 22bf
00000090: 7ac4 1fbf 04b6 28bf 014e 183f be27 1f3f
000000a0: 5859 2abf 09e0 153f 7e87 233f 1636 123f
000000b0: dcc3 213f c0e3 3bbf 428d 063f 532b 2abf
000000c0: 7720 0c3f 24f1 0e3f cd26 1cbf 103a 0b3f
000000d0: 607c f23e 82a2 163f cc79 13bf 4bf6 22bf
000000e0: 5761 1cbf d2e9 16bf 65dc 17bf abe4 19bf
000000f0: 1811 12bf 189c 22bf b772 16bf d2a0 173f
00000100: 9390 183f d369 1f3f 5c2b 223f 39da 133f
00000110: 6856 213f dc7c 1e3f 0d68 1f3f 4879 223f
00000120: 3244 1b3f 22a4 113f 3f1d 1e3f a2ef 103f
00000130: 2a67 173f 06df 203f 011d 0f3f b86f 143f
00000140: 7a0d 1e3f d381 83bf f095 25bf 322e 12bf
00000150: 21fc 173f be1b 29bf 4380 26bf 6a86 1e3f
00000160: a318 1b3f 15d3 213f 288a 1bbf baf1 17bf
00000170: 9d3c 15bf f5f9 1ebf 5188 1dbf c013 20bf
00000180: baa2 12bf 7c4f 21bf 75f4 15bf 69b1 1abf
00000190: 470b 1fbf 561b 1c3f 629d 1bbf c6a5 1cbf
000001a0: a45a 1f3f c0b3 20bf 75b9 16bf dcff 1c3f
000001b0: 3e64 1fbf 86d0 13bf 8773 bd3e 8f4a 12bf
000001c0: 097b 23bf 4f7d 21bf bc41 11bf 3975 17bf
000001d0: 9aa7 1bbf aff2 083f 5ac5 1f3f 240b 13bf
000001e0: d99f 2abf 053c 223f 2ce7 21bf 54dd 133f
000001f0: 6d6d 103f 2653 20bf ac95 27bf 3e15 1e3f
00000200: c3ff 1cbf a584 18bf 8929 0ebf 7274 17bf
00000210: 7bb5 15bf d233 23bf 49ce 23bf 830b 1dbf
00000220: 9be1 e83e 14ce 133f fe72 15bf ac61 1abf
00000230: 925d 113f 54b8 19bf 11c9 143f c80e 233f
00000240: cb0e 16bf 7977 19bf 47a6 11bf 4123 18bf
00000250: 192c 19bf 5c34 173f 6bde 12bf 63d3 1abf
00000260: dbc8 193f b3b8 1ebf 22cf 22bf 4529 23bf
00000270: 008b 1cbf 9246 19bf 6d64 19bf 1a6f 1fbf
00000280: 4c73 20bf 7d54 14bf ee6b 1e3f 1444 1a3f
00000290: 9ad5 1f3f e70a 103f 6ab4 0f3f ee01 103f
000002a0: 056f 233f 00bf 1f3f 38f6 1f3f e48c 163f
000002b0: ec2e 113f c75d 113f a4f8 203f 6ac2 163f
000002c0: 8028 0f3f abdc 223f c17f 1a3f 4709 203f
000002d0: 4907 133f 7db1 1b3f 2414 143f b29a 21bf
000002e0: e042 1b3f ef28 1f3f 9571 143f 13e3 1f3f
000002f0: 3c6e 223f 7498 1dbf d1e4 1dbf f21e 11bf
00000300: 737b 11bf dbdf 21bf 7b83 19bf 2af3 14bf
00000310: c3d6 1fbf e3c8 1dbf 7453 193f b306 103f
00000320: 3f1b 223f 005a 103f 645e 183f b66a 1d3f
00000330: d8f7 1d3f 61f8 1e3f 1974 1d3f a00e 20bf
00000340: e9f6 24bf 7eb7 1cbf 925e 1abf a6af 13bf
00000350: 7e19 23bf c3ed 19bf 5b2c 13bf 1764 21bf
00000360: 0a8d 103f 3bd1 203f d16e 21bf 4a6a 173f
00000370: 303e 0e3f 1501 1dbf 822b 113f 31dd 233f
00000380: c911 193f 610c 0f3f 5a43 233f 88e1 0e3f
00000390: 4250 213f 9988 1d3f d18e 1b3f 054e 223f
000003a0: 7445 0f3f 8978 1d3f 34bf 1cbf 353b 75bf
000003b0: 18ab 11bf 771e 1cbf 5b86 2fbf afeb 1abf
000003c0: 3d68 083f c2f9 183f c1d2 143f 27a2 0dbf
000003d0: 180a 233f 33b2 1b3f b3d8 20bf 767b 23bf
000003e0: 08df 1abf 7f6d 21bf c58a 14bf 2813 1bbf
000003f0: 615b 11bf 060a 18bf d6b7 1cbf 9737 1ebf
-0.5616975 -0.5101524 -0.61832416 -0.6056713 -0.6368204 -0.6365943 -0.5736374 -0.6337658
-0.62423563 -0.60746217 0.40439004 0.61280584 -0.5803448 0.32719952 0.6197746 -0.59023595
-0.631304 0.5774972 0.58312577 0.6282722 0.61724746 0.61834276 0.6079902 -0.6247479
0.636166 0.58270645 -0.60789794 0.6362305 0.6334987 -0.51114005 0.62090355 0.6185036
0.59220403 0.62376505 -0.56367904 -0.63481194 -0.62409174 -0.65902734 0.59494025 0.62170017
-0.6654258 0.58544976 0.6387862 0.5711378 0.6318948 -0.73394394 0.5255929 -0.6647236
0.5473704 0.558367 -0.60996705 0.5438547 0.47360516 0.5884172 -0.5760772 -0.63657063
-0.6108603 -0.5895053 -0.5932067 -0.60114545 -0.57057333 -0.6351943 -0.5876879 0.5922977
0.595956 0.6227085 0.6334741 0.57754856 0.6302247 0.6190927 0.62268144 0.6346631
0.6065093 0.5689107 0.61763376 0.5661565 0.5914179 0.62840307 0.5590363 0.5798297
0.61739314 -1.0273994 -0.6468191 -0.5710174 0.59369093 -0.66057956 -0.6503946 0.6192385
0.6058447 0.6321271 -0.60757685 -0.5935322 -0.58295614 -0.62100154 -0.6153613 -0.62530136
-0.5727955 -0.6301191 -0.58576137 -0.60426956 -0.6212658 0.6097921 -0.6078702 -0.6119045
0.6224768 -0.62774277 -0.58876735 0.6132791 -0.6226233 -0.57740057 0.37002203 -0.5714502
-0.6385961 -0.6308183 -0.5674093 -0.5916324 -0.60802615 0.53495306 0.6241051 -0.57438874
-0.6665016 0.6337283 -0.63243365 0.57759595 0.5641697 -0.62626874 -0.65462756 0.61751163
-0.6132776 -0.595774 -0.5553213 -0.59162056 -0.5848004 -0.63750947 -0.6398664 -0.6134569
0.45484623 0.57736325 -0.5837859 -0.60305285 0.567834 -0.6004689 0.58119303 0.6369443
-0.5861632 -0.59947926 -0.56894344 -0.59428793 -0.5983291 0.5906427 -0.5737063 -0.604788
0.60072106 -0.6200058 -0.6359731 -0.6373485 -0.611496 -0.59873307 -0.5991886 -0.622789
-0.6267593 -0.5794142 0.6188344 0.6026013 0.62435305 0.56266636 0.56134665 0.56252944
0.6384128 0.6240082 0.62485075 0.5880873 0.5671222 0.5678372 0.62879395 0.588904
0.55921173 0.6361796 0.60351187 0.62514156 0.5743299 0.608177 0.5784323 -0.6312667
0.6064892 0.62171835 0.5798581 0.6245586 0.63449454 -0.6156075 -0.6167727 -0.56687844
-0.56828994 -0.632322 -0.5996625 -0.5818354 -0.62437075 -0.61634654 0.59892964 0.5626022
0.63322824 0.5638733 0.5951903 0.6149095 0.61706305 0.62097746 0.61505276 -0.62522316
-0.64439255 -0.61217487 -0.6030055 -0.57689893 -0.63710773 -0.6012842 -0.57489556 -0.6304335
0.5646521 0.6281926 -0.6305972 0.5914656 0.5556364 -0.61329776 0.5670701 0.64009386
0.59792763 0.55878264 0.63774645 0.55812883 0.6301309 0.61536556 0.60764796 0.634003
0.5596535 0.6151205 -0.6122925 -0.9579347 -0.56901693 -0.60983986 -0.68564385 -0.60515875
0.53284055 0.597561 0.58134085 -0.5532555 0.63687277 0.60818785 -0.62830657 -0.6386026
-0.6049657 -0.630577 -0.58024246 -0.60576105 -0.5678006 -0.59390295 -0.6121801 -0.61803573

feature.func.norm2.weight f4 [64]
00000000: 426c 1140 a497 dc3f 3ebd 08c0 74cf 413f
00000010: 3e6b cc3f 1620 b83e 1490 cb3f 9b2d cc3e
00000020: 6194 f63e 5f3c 453e 957d c43f 94fa 9e3e
00000030: b26f 1d40 20a1 e33e 8006 d03f 0023 c23e
00000040: a04e c23e f06d cd3f 67ae cf3f 4b59 c23f
00000050: f14b 123f 75fb 58bf 0d67 b73e 5c8f ce3f
00000060: e221 c73f 2626 bf3f 638f 353f c40f 1f40
00000070: 3e8e 703e 7d58 cd3f 7a19 cd3f 872e ca3f
00000080: f737 cf3f 7e87 043f 2027 903f 2cb9 73be
00000090: 8a79 ed3e 45c0 c13f 2f33 2640 7b02 033f
000000a0: 4cf3 e03f 1b6f 763f d3e0 383f da50 3340
000000b0: 4176 fc3f 7855 123f c54d ea3f 1896 2640
000000c0: 04de 0bbd 7ecb dd3f f5eb 653f c0d6 e23f
000000d0: e94c c93f bedd 943e b5ce 1d40 fc0d cd3e
000000e0: 8c50 be3f 6725 ec3e 119e e23f 1945 873f
000000f0: aec5 463e 4fce 213e e825 df3f f1c0 b13e
2.2722325 1.7233777 -2.1365504 0.75707173 1.5970228 0.3596198 1.5903344 0.39878544
0.4816008 0.19261311 1.5350825 0.3105055 2.4599423 0.44458866 1.6251984 0.37917328
0.3795061 1.6049175 1.6225098 1.51835 0.5714713 -0.8475869 0.3582081 1.61375
1.5557215 1.4933517 0.70921916 2.4853373 0.23491761 1.604263 1.60234 1.5795449
1.6188954 0.51769245 1.126194 -0.23801106 0.4638179 1.5136801 2.596874 0.5117566
1.7574248 0.96263283 0.72218055 2.8018098 1.9723588 0.57161665 1.8304983 2.602911
-0.034147277 1.7327726 0.89813167 1.7721786 1.5726596 0.29075426 2.4657414 0.40049732
1.4868331 0.46122286 1.7704488 1.0567962 0.19411346 0.15801357 1.7433443 0.34717515

feature.func.norm2.bias f4 [64]
00000000: 1bb9 f73e aadd 17bf b4c0 51bf 5a2a 6a3f
00000010: 55d6 193f 77fb 19bf 3f33 223f 6a46 1dbf
00000020: 1cb2 943f d1f3 64bf 43c3 273f 73b4 26bf
00000030: 4ab5 c1be 077b 57bf c041 123f f681 10bf
00000040: 111d 19bf f8df 173f 3f54 213f d22e 1b3f
00000050: bdf6 4a3f 7bc8 42bf 249e 11bf 6a6a 103f
00000060: 5f09 e43e 47c6 8ebe 6575 433f 5998 85bd
00000070: 135c 19bf d033 183f dda2 1a3f d0ea 18bf
00000080: 9d0d 37bf 5efc e4be 2e4c 8b3f c51e babf
00000090: 9491 0abf 3cb5 103f eb35 afbd 7ed0 a7be
000000a0: 8fd6 d13e e6a0 d83c b64e c93e 23a7 93be
000000b0: af45 db3e 771a 473f 3b78 773f fff4 76bf
000000c0: 12d6 05bf 5298 0e3f d552 e4be c96d ce3e
000000d0: 2b85 033f acb1 e0be 1142 1d3e 93e4 8abd
000000e0: 192f 253f 9ff2 7fbf 995c a0bf 1470 163e
000000f0: b580 f73e 6421 e03b 2452 943e 5818 dcbe
0.48383412 -0.5932261 -0.81934667 0.91470873 0.6009267 -0.6014933 0.63359445 -0.6143557
1.1616855 -0.89434534 0.6553232 -0.65119094 -0.37833625 -0.841721 0.57131577 -0.56448305
-0.59809977 0.59326124 0.63019174 0.6061832 0.7928274 -0.7608716 -0.5688193 0.56412375
0.445384 -0.2788565 0.76351005 -0.06523199 -0.5990612 0.5945406 0.6040476 -0.59733295
-0.7150515 -0.4472379 1.0882623 -1.454064 -0.54128385 0.5652654 -0.08555206 -0.32776254
0.40984008 0.02644391 0.39317864 -0.28838453 0.42826602 0.7777476 0.9666783 -0.96467584
-0.5227977 0.5570117 -0.44594446 0.40318134 0.51375073 -0.43885553 0.15357234 -0.06781878
0.6452499 -0.99979585 -1.2528259 0.14691192 0.48340383 0.006839918 0.28968918 -0.42987323

norm.weight f4 [64]
00000000: 439e adbd 7413 5640 9feb 9fbb cb32 0840
00000010: 98c1 ea3c ef84 cc3e 7bc1 d23e a7b8 ad3e
00000020: a61d 1b3f 85a2 123f e355 f03e 8566 a53e
00000030: b593 dc3d 2297 1a40 c79b 0f3f 32b0 26be
00000040: c184 cc3e a96d a03e 9dea 863f c094 193f
00000050: 6033 ec3f 96b9 eebc 21ea b73e 5ff7 ac3e
00000060: 0f0a 2140 7f6b f23e 263b e2be e867 8340
00000070: 2eb1 a73e 18c1 7a3f 5086 2c3e 5d85 cc3e
00000080: 511e abbd 173e c53e 2b0e 243e 3013 5140
00000090: ec2f fdbe 5fd1 463f 51f2 0e40 e1da 9bbd
000000a0: a13b 453f 3c5d 22be 2a9c 0e3e 6aa0 8140
000000b0: db08 c13f f67b b7bd 1e57 5c40 4509 973f
000000c0: addf 563e b727 1f3f 9b91 d5bc 3e1c d03f
000000d0: e231 333f 48bc 033e 88e8 033e e690 2c40
000000e0: 362e 7d3f 0d06 84bd 3d20 ef3f 283b 263f
000000f0: 8791 15be b4d2 e33e db8b 133f a731 f9bd
-0.08477452 3.3449373 -0.004880383 2.1281002 0.028656766 0.3994517 0.4116324 0.3392994
0.60592115 0.57279235 0.46940526 0.3230478 0.107703604 2.4154744 0.5609707 -0.1627815
0.39945033 0.31333664 1.0540348 0.599926 1.8453178 -0.029141229 0.35920814 0.3378248
2.516239 0.47347638 -0.44185752 4.106434 0.32752365 0.9795089 0.16848111 0.39945498
-0.08355392 0.38523933 0.1602103 3.266796 -0.49450624 0.77663225 2.2335398 -0.07610107
0.7704411 -0.15855879 0.1392676 4.050832 1.5080827 -0.089591905 3.4428172 1.1799704
0.20983763 0.62169975 -0.026070407 1.6258619 0.6999799 0.12864792 0.12881672 2.696344
0.9889864 -0.064464666 1.8681713 0.64934015 -0.14606296 0.4449669 0.5763528 -0.121676736

norm.bias f4 [64]
00000000: 6f44 8abf 46fd 25bf 2bb2 88bf 50d8 48bf
00000010: 22c6 8abf 90bd 19bf 0304 44bf f5a5 3abf
00000020: d723 95bf 17e6 94bf a4ab 5cbf 013e 6cbf
00000030: 5f97 82bf 96e5 5cbf f323 65bf c2b6 f5bf
00000040: a0bd 19bf d1ff 28bf 7a33 02c0 bcd4 38bf
00000050: 04a4 4abf e35a 95bf 980e 3abf b8c0 54bf
00000060: 3f4f 82bf f138 13bf ed89 a2bf 41ac 01bf
00000070: 2ef5 23bf 1573 cabf 3b64 4fbf 78bd 19bf
00000080: 6d9e 91bf 56da 18bf dc77 60bf 49ce 5cbf
00000090: d8d3 babf 74db babf ddf2 19bf fb27 abbf
000000a0: 9567 0bc0 bcf0 95bf 8253 4ebf c79e edbe
000000b0: 08ce 4ebf 84ae 21bf 62f8 afbe a82e edbf
000000c0: b540 55bf 485b a4bf cdfb 71bf 60ff 27bf
000000d0: 7d83 cdbe ae8e 78bf 49a7 26bf eb22 b9bf
000000e0: e6d6 febf 4965 77bf 9ee4 4bbf d04a 79bf
000000f0: 9f6c 93bf ecfb 0bbf 9d98 eabe eb24 84bf
-1.0802134 -0.6483959 -1.0679373 -0.78455067 -1.0841715 -0.60054874 -0.7656862 -0.7290948
-1.1651562 -1.1632718 -0.861994 -0.9228211 -1.0202445 -0.8628782 -0.8950798 -1.9196398
-0.6005497 -0.66015345 -2.0343919 -0.72199607 -0.7915652 -1.1668361 -0.7267852 -0.83106565
-1.0180434 -0.5750876 -1.2698342 -0.50653464 -0.6404599 -1.581637 -0.81012315 -0.6005473
-1.1376473 -0.59708154 -0.8768289 -0.86252266 -1.45959 -1.4598222 -0.60136205 -1.3371576
-2.1781971 -1.1714091 -0.8059617 -0.464102 -0.8078313 -0.63156915 -0.3436919 -1.8529863
-0.8330186 -1.2840357 -0.9452484 -0.65624046 -0.4013938 -0.9709271 -0.65099007 -1.4463781
-1.9909332 -0.96638924 -0.7964572 -0.9737978 -1.1517524 -0.5468128 -0.4581956 -1.0323766
