log_odenet_mnist/model_100.pth (torch_old, 835331 bytes, 20 tensors)

downsampling.0.weight f4 [64, 1, 3, 3]
0	0xbfa9d4b7	-1.326804
1	0xbfac126a	-1.344312
2	0xbfa6e4be	-1.3038557
3	0xbf7a51c2	-0.97781
4	0xbf87d9cf	-1.0613345
5	0xbfbef723	-1.491917
6	0xbfa2345d	-1.267223
7	0xbfa80726	-1.3127182
8	0xbfdd1b34	-1.7273927
9	0xbed3a971	-0.4134021
10	0xbf4b7d5e	-0.7948817
11	0xbfd080cc	-1.6289306
12	0xbf05f7e5	-0.5233138
13	0xbf91d8f8	-1.1394339
14	0xbfce8892	-1.6135428
15	0xbeaf8152	-0.3427835
16	0xbf33e995	-0.7027829
17	0xbfa40247	-1.2813195
18	0xbe395da5	-0.18102129
19	0xbe8c0056	-0.27344006
20	0xbf0bec68	-0.546576
21	0xbee29d7e	-0.44260782
22	0xbe930162	-0.28711993
23	0xbf4f363d	-0.80942136
24	0xbe5010f1	-0.20318963
25	0xbea47db5	-0.32127157
26	0xbf40933e	-0.75224674
27	0x400dc6ef	2.215267
28	0x3fe819ec	1.8132911
29	0x3ffc72b3	1.9722503
30	0x4018c9f4	2.3873262
31	0x4012ad62	2.2918324
32	0x400dd422	2.2160726
33	0x400dd133	2.2158935
34	0x3ffa1917	1.9538907
35	0x3ffe0b24	1.984715
36	0x400e5ec2	2.2245336
37	0x3ffc4d9f	1.9711188
38	0x4011914d	2.2744935
39	0x3feb7383	1.8394626
40	0x3fe9a0a8	1.8252153
41	0x4018e459	2.3889372
42	0x4017e86d	2.3735611
43	0x401affe0	2.4218674
44	0x4010617c	2.25595
45	0x3f949c77	1.1610249
46	0x3f812afe	1.0091245
47	0x3f3d9247	0.74051327
48	0x3f848631	1.0353452
49	0x3f485234	0.7825043
50	0x3f66c110	0.9013834
51	0x3fa549d5	1.2913157
52	0x3fb25b4e	1.3934114
53	0x3f885b05	1.0652777
54	0xc018dc19	-2.3884337
55	0xc00c1d57	-2.1892908
56	0xc0239583	-2.5560005
57	0xbfd8cd04	-1.6937566
58	0xbfe5988b	-1.7937177
59	0xc024424d	-2.5665467
60	0xc0026d26	-2.037912
61	0xbfe0b72a	-1.7555897
62	0xc0246bdd	-2.5690835
63	0x3ed25c8b	0.4108623
64	0xbe015532	-0.12630156
65	0x3e79f4be	0.24409768
66	0x3d2da7e6	0.04239645
67	0x3def08ec	0.116716236
68	0x3db13fe3	0.086547635
69	0x3ebfc471	0.3745456
70	0x3d96a6fa	0.07356067
71	0x3d723538	0.059132785
72	0x3fdf1631	1.7428647
73	0x3fd64230	1.6738949
74	0x3fe3e42c	1.7804008
75	0x3fda5fa3	1.7060436
76	0x3f94f7d1	1.1638128
77	0x3fd9569f	1.697956
78	0x3fbffa0f	1.4998187
79	0x3fd781b4	1.6836457
80	0x3fb9e7c4	1.4523854
81	0xbe38f5f7	-0.18062578
82	0xbe40f15d	-0.18842073
83	0xbed80421	-0.4219065
84	0xbf0fd2fd	-0.5618132
85	0xbf2f3fb7	-0.68456596
86	0xbebc31b4	-0.3675667
87	0xbe1e8a2c	-0.15482396
88	0xbec095ca	-0.3761428
89	0xbeb5f224	-0.355363
90	0x3e347fb5	0.17626841
91	0x3e449404	0.19197088
92	0x3b199acc	0.0023438213
93	0x3c83bde0	0.01608175
94	0x3e0e507c	0.1389789
95	0x3ea51278	0.32240653
96	0x3ea93b4c	0.33053052
97	0x3e6208bd	0.22073646
98	0x3f20bced	0.6278828
99	0xbfe63bd6	-1.798701
100	0xbfd1ff3f	-1.640602
101	0xbfce92b0	-1.6138515
102	0xc0090bcd	-2.1413453
103	0xc0037663	-2.0541008
104	0xc00dcc05	-2.2155774
105	0xc00e1af9	-2.2203963
106	0xc0150b00	-2.3287964
107	0xc03b0b7e	-2.9225764
108	0xbf8a773e	-1.081764
109	0xbf71b66e	-0.9441899
110	0xbfa96cc6	-1.323632
111	0xbfc70c96	-1.5550716
112	0xbfc3da72	-1.5301039
113	0xbfb7ecde	-1.4369161
114	0xbfce6e07	-1.6127328
115	0xbf93faaf	-1.1560878
116	0xbfb45a25	-1.409001
117	0x3f7648ce	0.9620484
118	0x3f826c19	1.0189239
119	0x3f912503	1.133942
120	0x3f98a8a6	1.1926467
121	0x3f8455d0	1.0338688
122	0x3f5f9717	0.8733992
123	0x3fa67241	1.3003618
124	0x3f7e5b93	0.9935848
125	0x3f8acb15	1.0843226
126	0x3f436d8c	0.7633903
127	0x3ecb160d	0.3966526
128	0x3ef4fce5	0.47849193
129	0x3e4918d8	0.19638383
130	0x3eee47b0	0.46539068
131	0x3dad1377	0.08450978
132	0x3e3ce263	0.18445735
133	0x3ed40c4f	0.4141564
134	0x3f2024cb	0.6255614
135	0xbf3e2d8e	-0.7428826
136	0xbf110225	-0.566439
137	0xbf23b0bd	-0.63941556
138	0xbf70b5c8	-0.94027376
139	0xbf912914	-1.1340661
140	0xbf4580f3	-0.77149886
141	0xbf843c76	-1.0330951
142	0xbf6f5ff7	-0.93505806
143	0xbfa28502	-1.2696841
144	0xbf5040f4	-0.8134911
145	0xbf5f9299	-0.87333065
146	0xbf372f86	-0.7155689
147	0xbf19fe5e	-0.6015376
148	0xbf79b9db	-0.9754922
149	0xbf963bac	-1.173696
150	0xbfa59ec5	-1.2939078
151	0xbf6c0927	-0.92201465
152	0xbf959af9	-1.1687919
153	0xbac18b96	-0.0014766331
154	0xbe051a60	-0.12998343
155	0xbea9e595	-0.3318297
156	0xbda552d0	-0.08072436
157	0x3e13d3de	0.1443629
158	0xbea94e43	-0.3306752
159	0x3f079143	0.52956027
160	0x3d0f3995	0.034967024
161	0xbe92d5a1	-0.2867861
162	0xbfc880b6	-1.566428
163	0xbfe337fc	-1.775146
164	0xbfb92697	-1.4464902
165	0xbfd7e79c	-1.6867557
166	0xbfe0b9fc	-1.7556758
167	0xbfd8401b	-1.6894563
168	0xbfcbb69b	-1.5915102
169	0xc008216e	-2.1270404
170	0xbff461e1	-1.909237
171	0xbe437be8	-0.19090235
172	0xbeff61c8	-0.4987929
173	0xbe475e29	-0.19469513
174	0xbecf6b64	-0.4051162
175	0xbf211c0d	-0.6293343
176	0xbf0c57af	-0.54821295
177	0xbf721350	-0.9456072
178	0xbf3d44f5	-0.73933345
179	0xbf57510d	-0.8410805
180	0xbfb2459c	-1.3927493
181	0xbfd90b14	-1.6956506
182	0xbfadb465	-1.3570677
183	0xbfd4128c	-1.656816
184	0xbf9f2063	-1.2431759
185	0xbfef0099	-1.8672057
186	0xbfc89ff5	-1.5673815
187	0xbfd0ab68	-1.6302309
188	0xbfd2e65c	-1.647655
189	0x3f640341	0.89067465
190	0x3f8b0c59	1.0863143
191	0x3f9c5753	1.2214149
192	0x3f9fbc33	1.2479309
193	0x3f56a3f7	0.8384394
194	0x3f87ef72	1.0619948
195	0x3f61ae79	0.8815685
196	0x3f558434	0.8340485
197	0x3f81c254	1.0137429
198	0xbf2a570c	-0.66539073
199	0xbf4f5c26	-0.8099998
200	0xbf49e3bd	-0.78863126
201	0xbe88e5e7	-0.26737902
202	0xbeadaedf	-0.3392248
203	0xbddf4a0c	-0.10902795
204	0xbedd1311	-0.4317861
205	0xbe968a5e	-0.2940244
206	0xbe2778da	-0.16354695
207	0x3fc381b6	1.527396
208	0x3f97c9f3	1.1858505
209	0x3fc58b4e	1.5433137
210	0x3faa965c	1.3327136
211	0x3f9c49f0	1.2210064
212	0x3fd76831	1.6828672
213	0x3fd0ee33	1.6322693
214	0x3fd64240	1.6738968
215	0x3fbc6ba4	1.4720349
216	0xbf7818fa	-0.9691311
217	0xbf32d816	-0.6986097
218	0xbf415f34	-0.75535893
219	0xbf395157	-0.7238974
220	0xbf13ccc9	-0.5773435
221	0xbf9a5fcd	-1.2060486
222	0xbf7a72a0	-0.97831154
223	0xbf4d0640	-0.8008766
224	0xbf95fbff	-1.1717528
225	0x3fc3080b	1.523683
226	0x3fbe21b2	1.4854033
227	0x3fe273cc	1.7691588
228	0x3fccc48b	1.599748
229	0x3fa33964	1.2751889
230	0x3fa615b9	1.2975379
231	0x3fc89382	1.5670016
232	0x3fdad2ff	1.7095641
233	0x3fb2fe6e	1.3983896
234	0x3e5a5023	0.21319632
235	0x3e15e97b	0.14639847
236	0x3e403628	0.18770659
237	0x3eacad4d	0.33725968
238	0x3e7542b5	0.23951228
239	0x3eec3fe5	0.46142498
240	0x3f159612	0.58432114
241	0x3f2737b1	0.65319353
242	0x3ed55912	0.41669518
243	0xbf626779	-0.88439137
244	0xbf1052f8	-0.563766
245	0xbf751e7e	-0.9574965
246	0xbf546075	-0.8295968
247	0xbf3462ff	-0.70463556
248	0xbf7d6a41	-0.98990256
249	0xbf981c55	-1.1883646
250	0xbf9772ca	-1.1831906
251	0xbfcb1cfb	-1.5868219
252	0xbfe39195	-1.7778803
253	0xc00b31d8	-2.1749172
254	0xc01026a3	-2.2523582
255	0xc00a2725	-2.1586392

downsampling.0.bias f4 [64]
0	0xc020994e	-2.509357
1	0x40235c93	2.5525253
2	0xbe9246ec	-0.28569734
3	0x3dff9700	0.12479973
4	0xbc57794c	-0.013151478
5	0x3e3f412d	0.18677206
6	0xbf271d40	-0.65279007
7	0x3f7d6386	0.98979986
8	0x3fcc3ae5	1.5955473
9	0xbfb5e06d	-1.4209114
10	0x3f916048	1.1357508
11	0xbf9e7702	-1.2380068
12	0xbf040945	-0.51576644
13	0x3f2dd8d6	0.6790899
14	0xc01f4a3e	-2.4889064
15	0x402af8ea	2.6714425
16	0x3fb7a609	1.4347545
17	0xbfb379a1	-1.4021493
18	0xbfe73dce	-1.8065736
19	0x3fd18e5c	1.637157
20	0xbfcaa0f1	-1.5830365
21	0x3fda0e1a	1.7035553
22	0x40045a91	2.0680277
23	0xc00b8ba0	-2.180397
24	0xbbe1e160	-0.006893322
25	0xbe832b7f	-0.25619122
26	0xbfeece6e	-1.8656747
27	0x3ff55de7	1.9169282
28	0xbf0ee100	-0.5581207
29	0x3f1f6d7b	0.6227643
30	0xbf926a0d	-1.1438614
31	0x3f81fc3c	1.0155101
32	0xbfc0d79a	-1.5065796
33	0x3f851d33	1.0399536
34	0x3fdc7734	1.7223878
35	0xbfc4eba0	-1.5384407
36	0x4010ae23	2.2606285
37	0xc00b2435	-2.174085
38	0xbe80c135	-0.25147405
39	0x3e13e10f	0.14441322
40	0x400369cf	2.053333
41	0xc025e0d6	-2.591848
42	0x3fff2f1b	1.993625
43	0xc01250fe	-2.2861934
44	0xbf927280	-1.1441193
45	0x3f7ea230	0.9946623
46	0xbf54d107	-0.8313145
47	0x3f52db55	0.82365924
48	0xbe89f681	-0.2694588
49	0x3de5777e	0.11204432
50	0x3f87dd92	1.0614493
51	0xbf9142c3	-1.1348499
52	0x3f9a839b	1.2071413
53	0xbf8aa1f6	-1.0830677
54	0xbf3d729b	-0.74003
55	0x3f1f061f	0.62118715
56	0x3f043e0c	0.51657176
57	0xbf1d24e7	-0.61384434
58	0xc01bfea2	-2.4374166
59	0x401d5bd1	2.458729
60	0x40218665	2.5238278
61	0xc02b1913	-2.6734054
62	0xbffc31a1	-1.9702646
63	0x3ffb93bc	1.965446

downsampling.1.weight f4 [64]
0	0x408ae3dd	4.3403153
1	0x3fd28b12	1.6448691
2	0xbec20fc2	-0.37902647
3	0x40106592	2.2561994
4	0x400a68af	2.1626394
5	0x3f04f9eb	0.51943845
6	0x3f82e355	1.0225626
7	0x3fe829ac	1.8137717
8	0x3ffffffb	1.9999994
9	0xbcee8b08	-0.02911903
10	0xbe4c98ec	-0.1998021
11	0x3fb04a1b	1.3772615
12	0x3e75951e	0.23982665
13	0x3fec1e12	1.8446677
14	0x3e8c67b2	0.27422863
15	0x3f925c46	1.143441
16	0x3efe9cdb	0.49729046
17	0x3fe3eccb	1.7806638
18	0x402bbe21	2.6834795
19	0xbe24dfe6	-0.16101035
20	0x3fa99639	1.3248969
21	0x401e961c	2.477912
22	0xbe01c713	-0.12673597
23	0x403e91c6	2.9776473
24	0x3f511875	0.81677943
25	0x3ffcaaec	1.9739661
26	0x3f4114ba	0.7542225
27	0x3f2c25ce	0.67245185
28	0x400ab203	2.167115
29	0x400cdfbb	2.2011554
30	0x4020de02	2.5135503
31	0x40080de5	2.125848
32	0x3ff8ff9c	1.9453006
33	0x407220e4	3.7832575
34	0xbe6f8c44	-0.23393351
35	0x4046f363	3.1086051
36	0xbe0130bf	-0.12616251
37	0x408bb80f	4.366218
38	0x3e7b6857	0.24551521
39	0x3fee9fda	1.8642533
40	0x3febd5c5	1.8424612
41	0x3f238b5f	0.6388454
42	0x3fdd9ac9	1.7312862
43	0x3e633e89	0.22191824
44	0x3fa5d811	1.2956563
45	0x3fb48f9b	1.4106325
46	0x402d6eca	2.709887
47	0x3eb14cc0	0.34628868
48	0x3fb54704	1.4162297
49	0x3e329bf6	0.17442307
50	0x400c7b20	2.195015
51	0x400e6a84	2.2252512
52	0x3f555a56	0.83340967
53	0x3fbaa81f	1.4582556
54	0x3edf6209	0.43629482
55	0xbe997540	-0.29972267
56	0x3d9c8e72	0.07644357
57	0x3dc2bdb1	0.09508837
58	0x3e63bcbe	0.22239968
59	0x3f5784c7	0.8418698
60	0x3f9c3224	1.2202802
61	0x3f7e8e36	0.99435747
62	0x40095f53	2.1464431
63	0x401acffe	2.4189448

downsampling.1.bias f4 [64]
0	0x3f171d31	0.5902892
1	0xbffe4d0c	-1.9867263
2	0xbf5f0e46	-0.87131155
3	0xbf6d661d	-0.9273394
4	0xbe70bc30	-0.23509288
5	0xbfb72d98	-1.4310789
6	0xbfdbfd55	-1.7186686
7	0xc00e051b	-2.2190616
8	0xbf47399f	-0.778223
9	0xbf8e8e9d	-1.1137272
10	0xbf2c4a77	-0.67301124
11	0xbfe7d70b	-1.8112501
12	0xbf950600	-1.1642456
13	0xbf4557bc	-0.77087
14	0xbf7cf18b	-0.98806065
15	0x3da1931c	0.07889387
16	0xbdf027ca	-0.11726339
17	0xbf51b9a6	-0.819239
18	0xc004a984	-2.0728464
19	0xbf419a93	-0.75626487
20	0xc0153ebe	-2.3319545
21	0xbf59c934	-0.85072637
22	0xbf394056	-0.72363794
23	0x3f766a93	0.9625637
24	0xbe7c4b43	-0.24638085
25	0xbf25aaff	-0.64714044
26	0xbf56a015	-0.83838016
27	0xbe3d426b	-0.18482368
28	0xc01c1951	-2.4390452
29	0xbfe3db50	-1.7801304
30	0xbf8ed688	-1.115922
31	0xbf864465	-1.0489622
32	0xc00e902c	-2.2275496
33	0xbf5217f0	-0.82067776
34	0xbf5fd6f0	-0.87437344
35	0x3f6141a6	0.87990797
36	0xbf87c8da	-1.060817
37	0x3fa3e860	1.280529
38	0xbf20fb8d	-0.62883836
39	0xbe8be74a	-0.27324897
40	0xbe1ba725	-0.1520048
41	0xbe805021	-0.25061134
42	0x3d3d1ec7	0.04617193
43	0xbf3d69b8	-0.7398944
44	0xc00985ff	-2.1488035
45	0xbfd18e52	-1.6371558
46	0x3e12d4cc	0.14338988
47	0xbf0d6087	-0.55225414
48	0xbfc8e17b	-1.5693811
49	0xbf6465f3	-0.8921806
50	0xbf9cd204	-1.2251592
51	0xbffb593a	-1.9636605
52	0xbdab73ea	-0.08371718
53	0xbf0956d2	-0.536481
54	0xbf39fd6b	-0.7265231
55	0xbf9fc4e7	-1.2481965
56	0xbf17fe06	-0.59371984
57	0xbf373bd9	-0.71575695
58	0xbf24b779	-0.6434246
59	0xbea048e0	-0.313056
60	0x3c2e000a	0.0106201265
61	0xbe298dea	-0.16558042
62	0xbf905fe0	-1.1279259
63	0xbfc52bf8	-1.5404043

downsampling.3.weight f4 [64, 64, 4, 4]
0	0x3f23b38c	0.6394584
1	0x3f260fd5	0.6486791
2	0x3f42f73f	0.7615852
3	0x3f61d34c	0.8821304
4	0x3f38a9a8	0.72133875
5	0x3f34d6f2	0.7064048
6	0x3f4e69ec	0.80630374
7	0x3f66b148	0.9011426
8	0x3f33e063	0.7026426
9	0x3f2e4f9b	0.6809022
10	0x3f3fc220	0.74905586
11	0x3f569985	0.83828
12	0x3f26ca38	0.6515231
13	0x3f2df53e	0.67952335
14	0x3f43c14a	0.7646681
15	0x3f4cb38f	0.79961485
16	0xbf2f5a0d	-0.6849678
17	0xbf2e596c	-0.68105197
18	0xbf28cc30	-0.65936565
19	0xbf189868	-0.59607553
20	0xbf15989a	-0.58435977
21	0xbf11ef5a	-0.57005847
22	0xbf1a439c	-0.60259414
23	0xbf1887a4	-0.5958197
24	0xbf1a327b	-0.6023328
25	0xbf1350a9	-0.5754495
26	0xbf15f70d	-0.58580095
27	0xbf194dd1	-0.59884363
28	0xbf18f268	-0.5974488
29	0xbf1857ed	-0.59509164
30	0xbf0da6ba	-0.5533253
31	0xbf1573cd	-0.5837982
32	0xbf0aee7d	-0.54270154
33	0xbeff8e33	-0.49913177
34	0xbef95bc9	-0.4870284
35	0xbef69078	-0.48157096
36	0xbf02a60a	-0.51034606
37	0xbf047aef	-0.5175008
38	0xbf0599cc	-0.521878
39	0xbee454b8	-0.44595885
40	0xbefbaaf7	-0.49153873
41	0xbf05e268	-0.52298594
42	0xbf03b8c4	-0.51453805
43	0xbf038911	-0.5138102
44	0xbf0ab91a	-0.5418869
45	0xbf027d33	-0.5097229
46	0xbf050087	-0.5195393
47	0xbee2a1a5	-0.4426395
48	0xbf4ac690	-0.7920923
49	0xbf504949	-0.81361824
50	0xbf44bd79	-0.7685161
51	0xbf4f2e80	-0.8093033
52	0xbf41d569	-0.75716263
53	0xbf4ef789	-0.8084646
54	0xbf44cb64	-0.7687285
55	0xbf4b0a6e	-0.7931279
56	0xbf47aacd	-0.77994996
57	0xbf462dc4	-0.7741358
58	0xbf48f870	-0.78504086
59	0xbf3dab31	-0.7408934
60	0xbf3d9a3e	-0.7406348
61	0xbf399650	-0.72494984
62	0xbf42f658	-0.7615714
63	0xbf3f848b	-0.7481162
64	0x3e3cf2d7	0.18452011
65	0x3e31622a	0.17322603
66	0x3e31c623	0.1736074
67	0x3e614525	0.21999033
68	0x3e05b692	0.13057926
69	0x3e1810ee	0.14850208
70	0x3e1729d6	0.14762053
71	0x3e8eaf54	0.2786814
72	0x3e3cd5cf	0.18440937
73	0x3e3bf3ee	0.1835477
74	0x3e38828a	0.18018547
75	0x3e9e89ee	0.30964607
76	0x3e47645b	0.19471876
77	0x3e498fbc	0.19683737
78	0x3e8aa4be	0.27078813
79	0x3eb556b4	0.35417712
80	0xbf1ae227	-0.6050133
81	0xbf081bdb	-0.53167504
82	0xbf13e54d	-0.5777176
83	0xbf0ee5fb	-0.5581967
84	0xbf116de3	-0.568083
85	0x3f75e5df	0.9605388
86	0xbe9d979f	-0.3077974
87	0xbeead5b6	-0.45866174
88	0xbf03d244	-0.51492715
89	0x3f4961ee	0.78665054
90	0x3e3e85bb	0.18605702
91	0xbece1568	-0.40250707
92	0xbf0bfe63	-0.5468504
93	0x3f3b4b1e	0.73161495
94	0x3f5e9ed7	0.8696112
95	0xbcbee9bd	-0.023304814
96	0x3f05b259	0.5222526
97	0x3f081416	0.5315565
98	0x3f0ec037	0.55762047
99	0x3f114d74	0.5675881
100	0x3f187ab0	0.59562206
101	0x3f165f26	0.58738935
102	0x3f19ce9a	0.60080874
103	0x3f192e2d	0.59836084
104	0x3f12d6b8	0.57358885
105	0x3f164a53	0.5870716
106	0x3f259fb8	0.64696836
107	0x3f224fd1	0.6340304
108	0x3f16628c	0.5874412
109	0x3f1b7e44	0.6073954
110	0x3f1e8d28	0.6193414
111	0x3f212de6	0.6296066
112	0x3f39aafd	0.7252653
113	0x3f2e7b53	0.6815693
114	0x3f243b74	0.6415322
115	0x3f2a8b69	0.66618973
116	0x3f21de10	0.63229465
117	0x3f254a5a	0.64566576
118	0x3f22882e	0.63489044
119	0x3f23a708	0.63926744
120	0x3f2af78c	0.66783977
121	0x3f1ea127	0.6196465
122	0x3f29e4aa	0.6636454
123	0x3f23f4da	0.6404549
124	0x3f21f8e4	0.632704
125	0x3f22d5a0	0.63607216
126	0x3f22ef4f	0.63646406
127	0x3f26bd28	0.6513238
128	0xbf5cde7a	-0.8627697
129	0xbf637683	-0.8885271
130	0xbf62b500	-0.88557434
131	0xbf607eaf	-0.87693304
132	0xbf65bc82	-0.89740765
133	0xbf7e72e9	-0.9939409
134	0xbf8264df	-1.0187033
135	0xbf744dd6	-0.9543127
136	0xbf6eb061	-0.9323788
137	0xbf7cc55b	-0.9873864
138	0xbf86b9df	-1.0525473
139	0xbf85d21d	-1.0454746
140	0xbf76fe4f	-0.96481794
141	0xbf851c3a	-1.0399239
142	0xbf83e7c8	-1.0305109
143	0xbf88f77e	-1.0700529
144	0xbf0f46ce	-0.55967414
145	0xbf1436bb	-0.5789601
146	0xbf0a5ec3	-0.54050845
147	0xbf0920f3	-0.535659
148	0xbf098c22	-0.5372945
149	0xbf154e84	-0.5832293
150	0xbf16de80	-0.5893326
151	0xbf17a751	-0.5923968
152	0xbf13525b	-0.5754754
153	0xbf191e2b	-0.5981166
154	0xbf109fff	-0.56494135
155	0xbf0b86a5	-0.54502326
156	0xbf146e4a	-0.5798079
157	0xbf17c271	-0.5928107
158	0xbf0ce224	-0.55032563
159	0xbf0ca8ac	-0.5494487
160	0x3f129d5a	0.5727135
161	0x3f1a9db8	0.6039691
162	0x3f18d3e8	0.59698343
163	0x3f2063e0	0.626524
164	0x3f1f5d19	0.6225143
165	0x3f1957f5	0.59899837
166	0x3f12bc4b	0.5731856
167	0x3f20993e	0.6273383
168	0x3f214e5a	0.6301018
169	0x3f165841	0.58728415
170	0x3f1ea3da	0.6196877
171	0x3f1aae36	0.60422075
172	0x3f1e8b55	0.61931354
173	0x3f19b080	0.6003494
174	0x3f1b017c	0.6054914
175	0x3f1b6e61	0.607153
176	0x3ea7a57c	0.32743442
177	0x3ef8173a	0.4845522
178	0x3eee78c9	0.46576527
179	0x3ee3fd1f	0.44529054
180	0x3f087438	0.53302336
181	0x3f163117	0.58668655
182	0x3f10432e	0.5635251
183	0x3f1a1f79	0.60204273
184	0x3f09de7f	0.5385513
185	0x3f0c290c	0.5475013
186	0x3f11d93f	0.56972116
187	0x3f104b0d	0.5636452
188	0x3f0adaa6	0.5423988
189	0x3f0b221b	0.54348916
190	0x3f1202ea	0.57035697
191	0x3f1b6bb9	0.60711247
192	0xbd888eed	-0.06667886
193	0x3f286928	0.65785456
194	0x3f2b2fb9	0.66869694
195	0x3f2bee21	0.6716023
196	0x3f2811bd	0.65652066
197	0x3f25de60	0.6479244
198	0x3f1ed24c	0.6203964
199	0x3f2473fd	0.64239484
200	0x3f2414a8	0.6409402
201	0x3f1ea85c	0.61975646
202	0x3f18c70c	0.5967872
203	0x3f21dbef	0.6322622
204	0x3f23c5d0	0.6397371
205	0x3f24f3fc	0.6443479
206	0x3f168c6c	0.58808017
207	0x3f1b2444	0.6060221
208	0xbfca7a08	-1.5818491
209	0xbfc9847c	-1.5743556
210	0xbfc515d4	-1.5397286
211	0xbfcb26f1	-1.5871259
212	0xbfd3d8db	-1.6550554
213	0xbfd04fba	-1.6274331
214	0xbfccd05b	-1.6001085
215	0xbfd7ca1b	-1.6858553
216	0xbfdb7dda	-1.7147782
217	0xbfd5b655	-1.6696268
218	0xbfd5370b	-1.6657423
219	0xbfdc5567	-1.7213563
220	0xbfe467c1	-1.7844163
221	0xbfe3c9ec	-1.7795997
222	0xbfe19316	-1.7623012
223	0xbfe8c8e7	-1.818631
224	0xbf1a1209	-0.6018377
225	0xbf18ec19	-0.59735256
226	0x3f35dd84	0.7104113
227	0x3f1c582c	0.6107204
228	0x3f28e1ed	0.65969735
229	0x3f200782	0.62511456
230	0x3f16581c	0.58728194
231	0x3f1469f7	0.5797419
232	0x3f209a41	0.6273537
233	0x3f1dd56e	0.6165379
234	0x3f147092	0.5798427
235	0x3f1a6e50	0.60324574
236	0x3f18ca87	0.5968403
237	0x3f16924e	0.58816993
238	0x3f15e32a	0.5854975
239	0x3f1ae900	0.6051178
240	0x3f4d048c	0.80085063
241	0x3f3fc6be	0.7491263
242	0x3f422be9	0.7584825
243	0x3f6ec885	0.9327472
244	0x3f721756	0.9456686
245	0x3f6981d7	0.91213745
246	0x3f5a21e6	0.85207975
247	0x3f7292ae	0.94755065
248	0x3f6788fb	0.9044339
249	0x3f6a93e4	0.91631913
250	0x3f584f3d	0.8449591
251	0x3f63a51e	0.88923824
252	0x3f749eaa	0.955546
253	0x3f79d51c	0.97590804
254	0x3f78aa73	0.97135085
255	0x3f6295be	0.8850974

downsampling.3.bias f4 [64]
0	0xbc81e53b	-0.015856376
1	0x3c81004b	0.01574721
2	0xbf4aaebc	-0.79172873
3	0x3f4a8040	0.79101944
4	0x3f977ac1	1.1834337
5	0xbf9819f0	-1.1882915
6	0x3f001fdd	0.5004862
7	0xbf0da81d	-0.55334646
8	0xbeba8019	-0.36425856
9	0x3ea753ae	0.3268103
10	0xbf2fef5b	-0.687246
11	0x3f393a34	0.72354436
12	0xbe893d32	-0.268045
13	0x3e5f27b2	0.21792486
14	0xbeeaa997	-0.45832512
15	0x3eeceba1	0.4627352
16	0xbf313270	-0.69217587
17	0x3f3a9fe3	0.7290022
18	0xbed690dc	-0.41907394
19	0x3ecd3ebd	0.40086928
20	0x3f6b70f5	0.91969234
21	0xbf68a5cd	-0.9087799
22	0xbf11367a	-0.5672375
23	0x3f1253e4	0.57159257
24	0xbf9cfa34	-1.2263856
25	0x3f98b1c7	1.1929253
26	0x3f0fbec2	0.5615045
27	0xbf12f0c9	-0.5739866
28	0xbf4eacc6	-0.8073238
29	0x3f4819a7	0.7816414
30	0x3f450b7a	0.76970637
31	0xbf384366	-0.7197784
32	0xbf194e7c	-0.5988538
33	0x3f1371f9	0.57595783
34	0x3f26a598	0.65096426
35	0xbf32446b	-0.6963565
36	0xbe936124	-0.2878505
37	0x3ea3cd4b	0.31992564
38	0x3ebcda3e	0.36885256
39	0xbeb5cd01	-0.35507968
40	0x3f179f88	0.592278
41	0xbf183fed	-0.59472543
42	0x3f2b8a7d	0.6700819
43	0xbf29e00e	-0.66357505
44	0x3f23e03f	0.6401405
45	0xbf1a679f	-0.60314363
46	0x3ed29ee8	0.4113686
47	0xbee394d1	-0.44449475
48	0xbf1e909a	-0.61939394
49	0x3f25b42b	0.6472804
50	0x3f2828a2	0.65687
51	0xbf24e33a	-0.6440922
52	0x3f0ec780	0.5577316
53	0xbf0ca53e	-0.5493964
54	0x3f989baa	1.1922505
55	0xbf9f9b97	-1.2469357
56	0x3f11e349	0.56987435
57	0xbf056379	-0.5210491
58	0xbef898b6	-0.4855401
59	0x3ee9a7a7	0.4563572
60	0xbf0c1b78	-0.54729414
61	0x3f029e47	0.5102276
62	0xbf06d0ec	-0.5266254
63	0x3f0689e5	0.5255416

downsampling.4.weight f4 [64]
0	0x3f062d8e	0.5241326
1	0x3e5a5c3a	0.21324244
2	0x3e7ce017	0.24694858
3	0x3fc7e82f	1.5617732
4	0x401704f3	2.359677
5	0x40a62f87	5.1933017
6	0x3fae4c6d	1.3617073
7	0x400fe1ae	2.2481494
8	0x3fd09bb0	1.6297512
9	0x402caf76	2.6982093
10	0x3e1063d3	0.1410058
11	0x3fae839a	1.3633912
12	0xbd557e9f	-0.05212271
13	0x3f881c64	1.0633664
14	0x40016e2c	2.0223494
15	0x3f8973e9	1.0738498
16	0x3f5d0693	0.86338156
17	0x407a7dfb	3.9139392
18	0xbf427102	-0.75953686
19	0x3fbf47c8	1.4943781
20	0x3fd30980	1.6487274
21	0x3ffb6dbf	1.9642867
22	0x401164db	2.2717807
23	0x3f91ab15	1.1380335
24	0x409d25ae	4.9108496
25	0x3fa89f3f	1.3173598
26	0x3fa139e1	1.2595788
27	0x3fc3f1cc	1.5308166
28	0x40846b0a	4.1380663
29	0x3fc61af7	1.5476979
30	0x3f556ea3	0.83371943
31	0x3ecc84e2	0.39945132
32	0x3ecc86e5	0.39946666
33	0x3fbe1448	1.4849939
34	0x3f203113	0.6257488
35	0x3fb910fb	1.4458307
36	0x3d96770e	0.07346927
37	0x3fe3b4f0	1.7789593
38	0x401f98d4	2.493703
39	0x3f79de3e	0.9760474
40	0x3e478cf7	0.19487368
41	0x3ecc8520	0.39945316
42	0x3f958920	1.1682472
43	0x3ee62371	0.44948915
44	0x3c411b2f	0.011786266
45	0x3f9939e2	1.197079
46	0x3fb00986	1.3752906
47	0x401ba628	2.4320164
48	0x3f8b4a85	1.0882117
49	0xbd0bfdfd	-0.03417777
50	0x40378657	2.8675745
51	0x3f9a9ca1	1.2079049
52	0x403ab2a2	2.917153
53	0x3f9acde8	1.2094088
54	0x3ffc5d21	1.9715921
55	0x3f7c5a13	0.9857494
56	0x3fb7b9e0	1.43536
57	0x3ecc84fb	0.39945206
58	0x3fb1e10b	1.3896803
59	0x3d8e36e8	0.06944066
60	0xbcb6ca5c	-0.02231329
61	0x3f6d0f35	0.9260133
62	0x3ecc86d5	0.3994662
63	0x3f9cfc63	1.2264522

downsampling.4.bias f4 [64]
0	0x3eb2062e	0.3477034
1	0xbf6f399f	-0.934473
2	0xbf87612c	-1.057653
3	0xc00318d0	-2.0483894
4	0xbf8538a4	-1.040791
5	0x3f2e68b7	0.6812853
6	0xbfaa10bc	-1.3286357
7	0xbf81a9e7	-1.0129975
8	0x3e8418cf	0.25800177
9	0xbedbed50	-0.42954493
10	0xbf3cc383	-0.7373583
11	0xc016fd6b	-2.3592174
12	0xbf800199	-1.0000488
13	0xbf551836	-0.8324007
14	0xbff057b5	-1.8776766
15	0xbf899cd4	-1.0750985
16	0xbfff3d0f	-1.9940509
17	0xbfa06e7c	-1.2533717
18	0xbf5cf8c7	-0.86317104
19	0xbf369914	-0.7132733
20	0xbff26d94	-1.893969
21	0xc004b329	-2.073435
22	0xbec54016	-0.38525456
23	0xc00cd4da	-2.2004914
24	0x3ef81984	0.48456967
25	0xbf053ae4	-0.52042985
26	0xbff4b8fe	-1.9118955
27	0xbfa49da6	-1.286061
28	0xbe395468	-0.18098605
29	0xbf98d195	-1.1938959
30	0xbf3f55bb	-0.7474019
31	0xbf19bd90	-0.60054874
32	0xbf19bd49	-0.6005445
33	0xbf2286ca	-0.6348692
34	0xbf5a06e5	-0.8516677
35	0xbf96fb8d	-1.1795517
36	0xbf968e0c	-1.1762099
37	0x3d103082	0.03520251
38	0xbf9ca701	-1.2238466
39	0xbf0f4aad	-0.5597332
40	0xbf72cf51	-0.9484759
41	0xbf19bd87	-0.6005482
42	0x3f14aa92	0.5807277
43	0xbfdd155a	-1.7272141
44	0xbf83de35	-1.0302187
45	0xbf8c3d9d	-1.0956303
46	0xc01318a9	-2.2983801
47	0xc00acf95	-2.1689198
48	0xbe31275e	-0.17300174
49	0xbf869085	-1.0512854
50	0xbfab2a84	-1.337235
51	0xc01493b0	-2.3215141
52	0xbfd16acd	-1.6360718
53	0xbf9f9a56	-1.2468975
54	0xc02bda03	-2.6851814
55	0xbf467c3b	-0.7753331
56	0xbfc24921	-1.5178567
57	0xbf19bd82	-0.6005479
58	0xc012874a	-2.2895074
59	0xbfbbca11	-1.4671041
60	0xbf9f8a97	-1.2464169
61	0xc003b14d	-2.0576966
62	0xbf19bc95	-0.6005338
63	0xbf91f34c	-1.1402373

downsampling.6.weight f4 [64, 64, 4, 4]
0	0xbf0cd9eb	-0.55020016
1	0x3eaca282	0.33717734
2	0xbf396c7d	-0.72431165
3	0xbf0e98ff	-0.55702204
4	0x3e9758e4	0.29560006
5	0x3e043aa4	0.12912995
6	0x3ddb951c	0.107218
7	0x3e3fa278	0.1871432
8	0x3ea56c96	0.32309407
9	0x3e0e25b2	0.13881567
10	0x3e0ae022	0.13562062
11	0x3e4414b4	0.19148523
12	0x3ee588b6	0.44830865
13	0x3e892796	0.26788014
14	0x3eb52d38	0.35386062
15	0x3eb48fde	0.35266012
16	0x3f04f110	0.5193033
17	0x3ea24258	0.3169124
18	0xbf24824d	-0.64261323
19	0xbf1ac3b0	-0.60454845
20	0x3f094262	0.5361692
21	0x3f01b65e	0.50668895
22	0xbf1d217f	-0.61379236
23	0xbf2c0f61	-0.67210966
24	0x3f160555	0.58601886
25	0x3f197dce	0.5995759
26	0x3f043852	0.5164844
27	0x3f0e4e44	0.55588174
28	0x3f10b519	0.56526333
29	0x3f194f74	0.5988686
30	0x3f19bc80	0.60053253
31	0x3f142070	0.57861996
32	0x3f13dfd9	0.5776344
33	0x3f1bdf93	0.6088802
34	0x3f1002a8	0.56254053
35	0x3f18c96c	0.59682345
36	0x3f141ab6	0.5785326
37	0x3f0f263c	0.55917716
38	0x3f136d0e	0.5758828
39	0x3f163c02	0.58685315
40	0x3f1d66df	0.61485094
41	0x3f1616b6	0.58628404
42	0x3f10678e	0.5640801
43	0x3f186dd6	0.59542596
44	0x3f1526b4	0.5826218
45	0x3f13f8de	0.57801616
46	0x3f1ec9b6	0.62026536
47	0x3f14622f	0.57962316
48	0x3fb5c486	1.4200599
49	0x3f667a19	0.90030056
50	0x3fd62f1d	1.6733128
51	0x4018e897	2.3891962
52	0x3f2c99bf	0.674221
53	0x3e5de8d3	0.21670847
54	0x3f78f7d9	0.97253186
55	0x3fdec0d9	1.7402602
56	0x3f516291	0.81791025
57	0x3e83f6ef	0.25774333
58	0x3f86bac5	1.0525748
59	0x3ffa9442	1.9576495
60	0x3fc6d96c	1.5535102
61	0x3f92db6c	1.1473212
62	0x3ffe7355	1.9878947
63	0x4039d58e	2.9036593
64	0xbe8ffc15	-0.2812201
65	0x3f0f26bd	0.55918485
66	0x3f1b133e	0.60576236
67	0x3f08b478	0.53400373
68	0xbf2981e1	-0.66213804
69	0xbf3b21e6	-0.730986
70	0x3e86a47a	0.2629736
71	0x3e96c765	0.29449
72	0xbf21b4d9	-0.63166577
73	0xbf5092ab	-0.814738
74	0x3e85b5fe	0.26115412
75	0x3e9fbcb7	0.31198665
76	0xbf1ee516	-0.6206831
77	0xbf459922	-0.7718679
78	0x3e6961bb	0.22791187
79	0x3ead5de0	0.33860683
80	0x4007e7e1	2.1235278
81	0x400b8886	2.1802077
82	0x400fd2e4	2.2472467
83	0x4001736a	2.0226693
84	0x3ff23882	1.8923495
85	0x40036d2d	2.0535386
86	0x4009335c	2.1437597
87	0x3fe7051b	1.8048433
88	0x4008d3e3	2.1379325
89	0x401fa0d2	2.4941907
90	0x401ddccb	2.4666011
91	0x400bc704	2.184022
92	0x3ff467fb	1.9094232
93	0x400e63aa	2.224833
94	0x400606ba	2.0941606
95	0x3feb6eae	1.8393152
96	0x3fa13d05	1.2596747
97	0x3f8479aa	1.0349629
98	0x3f92a438	1.1456366
99	0x3fb60475	1.422011
100	0x3f64d89f	0.8939304
101	0x3f25531b	0.64579934
102	0x3f4a744c	0.79083705
103	0x3f816808	1.0109873
104	0x3f55669b	0.8335969
105	0x3f239c80	0.63910675
106	0x3f44a310	0.76811314
107	0x3f829f51	1.020487
108	0x3f8ff340	1.1246109
109	0x3f857365	1.0425841
110	0x3f939057	1.1528424
111	0x3fb3331d	1.3999974
112	0xbd548f2c	-0.05189435
113	0x3d157984	0.03649284
114	0xbe8548fd	-0.26032248
115	0xbe0db5b5	-0.13838847
116	0xbe2a9dc6	-0.16661748
117	0x3cd21b23	0.025647705
118	0xbe8f7fc2	-0.2802716
119	0xbea775ee	-0.3270716
120	0xbe7bc422	-0.24586537
121	0xbce1890c	-0.02753117
122	0xbebe762c	-0.37199533
123	0xbea0b289	-0.31386212
124	0xbe453bbb	-0.19261067
125	0x3d5eaade	0.05436217
126	0xbea5bc20	-0.3237009
127	0xbf2dc685	-0.6788104
128	0x3f768bab	0.96306866
129	0x3ed0a608	0.40751672
130	0x3ef5f4ae	0.48038238
131	0x3f4832ce	0.7820252
132	0xbe1ee40b	-0.15516679
133	0xbf25740b	-0.6463019
134	0xbf1c5877	-0.61072487
135	0xbe716ba7	-0.23576222
136	0xbe6e2727	-0.23257123
137	0xbf2ee19e	-0.68313015
138	0xbf1a89b5	-0.60366374
139	0xbe4e760a	-0.20162216
140	0x3eb71dc0	0.35764885
141	0xbe112666	-0.14174804
142	0x3ce876c0	0.028376937
143	0x3eed3750	0.46331263
144	0x3fb010a5	1.375508
145	0x3f6b5c82	0.9193803
146	0x3f893c50	1.0721531
147	0x3faf4611	1.3693258
148	0x3f487eff	0.7831878
149	0x3edc0126	0.42969626
150	0x3f2586eb	0.64658993
151	0x3f78f272	0.9724494
152	0xbedd18f3	-0.43183097
153	0xbe94105a	-0.28918725
154	0x3f1c250e	0.6099404
155	0x3f6d805c	0.92773986
156	0x3e4ac170	0.19800353
157	0x3f6cfada	0.9257027
158	0x3f917b6c	1.136579
159	0x3fbdfac9	1.4842159
160	0xbf201ea1	-0.62546736
161	0x3f1420e5	0.57862693
162	0x3f1fe67f	0.62461084
163	0x3f142445	0.5786784
164	0xbf11fa95	-0.5702298
165	0xbf214c59	-0.6300712
166	0x3f148ce4	0.5802748
167	0x3f157120	0.5837574
168	0xbf211604	-0.6292422
169	0xbf13115d	-0.5744837
170	0xbf1f767b	-0.6229016
171	0x3f13993e	0.57655704
172	0xbf1e4f02	-0.61839306
173	0xbf16ce58	-0.58908606
174	0xbf1b55bd	-0.606777
175	0x3f210c69	0.6290956
176	0x3eb6619b	0.35621342
177	0x3ee94582	0.45560843
178	0x3f038f53	0.5139057
179	0x3f4f12c5	0.80888015
180	0x3eaa6573	0.33280525
181	0x3ee3ec1a	0.4451607
182	0x3f01d05f	0.50708574
183	0x3f4aeb4d	0.7926529
184	0x3e8ac54e	0.27103657
185	0x3ea98800	0.33111572
186	0x3eb94814	0.36187804
187	0x3f2b8c4e	0.6701096
188	0x3f050142	0.51955044
189	0x3f2a6c38	0.6657138
190	0x3f2e1803	0.6800539
191	0x3f60b7cc	0.8778045
192	0x3f15ca7a	0.5851208
193	0x3f136b14	0.57585263
194	0x3f19e533	0.60115355
195	0x3f173517	0.59065384
196	0x3f17e997	0.59340805
197	0x3f1acd3d	0.6046942
198	0x3f157b86	0.58391607
199	0x3f14206d	0.5786198
200	0x3f1200e0	0.57032585
201	0x3f1d5afd	0.6146696
202	0x3f1678e1	0.58778197
203	0x3f1fa7f0	0.6236563
204	0x3f18fa07	0.5975651
205	0x3f1f6e8e	0.6227807
206	0x3f21ba4c	0.6317489
207	0x3f136eff	0.5759124
208	0x3f0493c4	0.5178797
209	0x3ef74ca6	0.48300666
210	0x3f0078ff	0.50184625
211	0x3f022db0	0.50850964
212	0x3f03106d	0.5119694
213	0x3ef81f0a	0.4846118
214	0x3efeccf5	0.49765745
215	0x3efa5954	0.48896277
216	0x3eee8a09	0.46589687
217	0x3efe3fdf	0.49658105
218	0x3ef75980	0.4831047
219	0x3f079d5a	0.52974474
220	0x3ee218dc	0.4415959
221	0x3ee545b3	0.4477974
222	0x3eff96dc	0.49919784
223	0x3f064ddd	0.5246256
224	0xbeeb5d7a	-0.45969754
225	0xbf2fb7da	-0.6863991
226	0xbf5c85fc	-0.86141944
227	0xbf7b3a84	-0.9813616
228	0xbec55089	-0.38538006
229	0xbf13913b	-0.5764348
230	0xbf4c2515	-0.7974408
231	0xbf70df9e	-0.9409121
232	0xbe8172ce	-0.25282902
233	0xbf1381b9	-0.57619816
234	0xbf474e00	-0.77853394
235	0xbf6951ad	-0.9114025
236	0xbea5ce91	-0.3238416
237	0xbf0ec1ee	-0.55764663
238	0xbf7e7917	-0.9940352
239	0xbfa6429d	-1.2989079
240	0xbe14544e	-0.14485285
241	0xbe8d02f3	-0.27541313
242	0x3f66101e	0.8986834
243	0x3fa257a6	1.2682998
244	0xbf00d08f	-0.50318235
245	0xbf21192f	-0.6292905
246	0xbf1613ba	-0.5862385
247	0x3f180597	0.5938353
248	0xbf1292bf	-0.57255167
249	0xbf344891	-0.7042323
250	0xbf25ac5b	-0.6471612
251	0xbe3c7f0f	-0.18407844
252	0xbea5328c	-0.32265127
253	0xbebdd0a0	-0.3707323
254	0xbdead482	-0.11466314
255	0x3eff3dda	0.49851876

downsampling.6.bias f4 [64]
0	0x3eb2ce21	0.3492289
1	0x3f53121c	0.8244951
2	0xbf378a12	-0.71695054
3	0xbebe27ad	-0.37139645
4	0x3f1f6a46	0.62271535
5	0xbf192a97	-0.5983061
6	0x3f2c0239	0.6719089
7	0xbf1b4bc6	-0.60662496
8	0x3f38ef9f	0.7224063
9	0xbf94c3b3	-1.1622223
10	0x3f1cfb35	0.6132081
11	0xbf2bdf61	-0.67137724
12	0xbf067d6e	-0.5253514
13	0xbf34bf51	-0.70604426
14	0x3f0b750e	0.54475486
15	0xbf07abb3	-0.5299637
16	0xbf189e09	-0.5961614
17	0x3f1df740	0.617054
18	0x3f1da299	0.6157623
19	0x3f2c8b23	0.67399806
20	0xbf0f9cfa	-0.560989
21	0xbf5026c1	-0.81309134
22	0xbf0d3857	-0.5516409
23	0x3f16c1ff	0.58889765
24	0x3f0f0ea2	0.558817
25	0x3f4127cd	0.75451356
26	0x3fac3604	1.3453984
27	0xbd3422c5	-0.04397847
28	0xbf129b16	-0.5726789
29	0x3f1393cc	0.57647395
30	0x3f192efc	0.5983732
31	0xbf16f1fb	-0.5896298
32	0xbf41b435	-0.756656
33	0xbf1317da	-0.5745827
34	0x3f7a606c	0.9780338
35	0xbfc1c3d0	-1.5137882
36	0x3f3600d3	0.7109501
37	0x3f153101	0.582779
38	0xbf85034f	-1.0391635
39	0xbeb91539	-0.36149004
40	0x3efb986c	0.49139726
41	0x3e38358d	0.17989178
42	0x3fe99aee	1.8250406
43	0xbed23d09	-0.4106219
44	0x3eef4d95	0.46738878
45	0x3f2ed83b	0.6829869
46	0xbdd484e0	-0.103769064
47	0x3df2242f	0.11823308
48	0xbf004136	-0.50099504
49	0x3f1b6bfb	0.6071164
50	0xbef5a8e3	-0.47980413
51	0xbe75fb43	-0.2402163
52	0x3f007ec5	0.50193435
53	0x3f336a07	0.7008366
54	0x3e2f1425	0.17097528
55	0x3faba203	1.3408817
56	0x3f2262ad	0.6343182
57	0x3f0568d9	0.5211311
58	0xbf82f3a5	-1.0230604
59	0x3e2375f5	0.15962966
60	0x3e4ff97c	0.20310014
61	0x3ec0fead	0.37694302
62	0x3e00f372	0.12592867
63	0xbeb096d9	-0.34490088

feature.func.conv1.weight f4 [64, 65, 3, 3]
0	0x3f1d827a	0.61527216
1	0x3f201d3c	0.6254461
2	0x3f200db8	0.62520933
3	0x3f1d2cff	0.61396784
4	0x3f198c55	0.59979755
5	0x3f2bbfa5	0.670893
6	0x3f24e593	0.644128
7	0x3f2f2b63	0.6842558
8	0x3f45975a	0.7718407
9	0x3f0c4d32	0.5480529
10	0x3f1880e3	0.59571666
11	0x3f1beec2	0.6091119
12	0xbf29dc24	-0.6635153
13	0xbf11982a	-0.5687281
14	0xbf0d17e9	-0.5511461
15	0xbf214c65	-0.63007194
16	0xbf160db9	-0.5861469
17	0xbf0e52c7	-0.5559506
18	0x3f07b68d	0.53012925
19	0x3f118dc2	0.5685693
20	0x3f0cc33a	0.5498539
21	0x3f13a7ed	0.5767811
22	0x3f1c9392	0.61162674
23	0x3f195e17	0.59909195
24	0x3f0f537b	0.55986756
25	0x3f1416f1	0.57847506
26	0x3f0ab7de	0.5418681
27	0xbf107e10	-0.56442356
28	0xbf078bce	-0.529477
29	0xbf231376	-0.6370157
30	0xbf2386ae	-0.6387738
31	0xbeef3f27	-0.4672787
32	0xbf1e9d33	-0.61958617
33	0x3ed8f241	0.42372325
34	0x3f0d0907	0.550919
35	0x3f08891e	0.53334224
36	0x3f3d7e02	0.740204
37	0xbedc933f	-0.4308109
38	0xbf089034	-0.53345037
39	0x3f9499c8	1.160943
40	0xbf0ad97b	-0.542381
41	0xbf0a241b	-0.5396134
42	0xbeb867aa	-0.3601659
43	0xbf098b51	-0.53728205
44	0xbf01cf45	-0.50706893
45	0xbf1202ea	-0.57035697
46	0xbf1211c2	-0.57058346
47	0xbf1a49ca	-0.60268843
48	0xbf2098ca	-0.6273314
49	0xbf120bd6	-0.5704931
50	0xbf208cdc	-0.62714934
51	0xbf1db0d4	-0.61597943
52	0xbf1df33a	-0.6169926
53	0xbf1c96db	-0.6116769
54	0x3f1a4f03	0.6027681
55	0x3f1d6a44	0.61490273
56	0x3f1864da	0.5952889
57	0x3f22e066	0.63623655
58	0x3f13375d	0.5750635
59	0x3f164e43	0.5871317
60	0x3f20fd8d	0.6288689
61	0x3f23bcae	0.6395978
62	0x3f244be7	0.6417832
63	0x3ef8f954	0.48627722
64	0x3f0a9c30	0.54144573
65	0x3f0f15e4	0.5589278
66	0x3f03666b	0.5132815
67	0x3f12f1ee	0.57400405
68	0x3f105d75	0.56392604
69	0x3ef8f944	0.48627675
70	0x3f023063	0.5085508
71	0x3f01f814	0.5076916
72	0xbef3f196	-0.47645253
73	0xbefb2ded	-0.49058476
74	0xbd2c8b18	-0.042124838
75	0x3f74e944	0.95668435
76	0x3f352511	0.70759684
77	0x3f601830	0.8753691
78	0x3f542159	0.82863384
79	0x3f2c5848	0.67322206
80	0x3f347b4f	0.70500654
81	0xbf33393a	-0.70009196
82	0xbf2a69a7	-0.6656746
83	0xbf3a9d2a	-0.72896063
84	0xbf833b9f	-1.025257
85	0xbf266a39	-0.6500583
86	0xbf2abdfa	-0.6669613
87	0xbf2ded6e	-0.67940414
88	0xbf13dd24	-0.5775931
89	0xbf1a4942	-0.6026803
90	0x3ed2f46c	0.41202104
91	0xbf2c2c5c	-0.6725519
92	0xbf12893a	-0.5724064
93	0xbf00b81f	-0.50280946
94	0xbf0cc490	-0.5498743
95	0xbf16f122	-0.5896169
96	0xbf16d6dd	-0.58921605
97	0xbf14526a	-0.57938254
98	0xbf0cd51e	-0.5501269
99	0x3f142a26	0.57876813
100	0x3f1ac987	0.60463756
101	0x3f1888b0	0.5958357
102	0x3f10638c	0.56401896
103	0x3f173932	0.5907165
104	0x3f0f0475	0.55866176
105	0x3f0cdd4e	0.55025184
106	0x3ee8c96c	0.45466173
107	0x3f0989ee	0.5372609
108	0xbf114957	-0.5675253
109	0xbefa3612	-0.48869377
110	0xbf198135	-0.5996278
111	0xbf144462	-0.57916844
112	0xbee91ad5	-0.45528284
113	0x3ef16662	0.47148424
114	0x3ef6ee0c	0.4822849
115	0x3f0e9287	0.55692333
116	0x3e408345	0.18800075
117	0xbf1fb018	-0.6237807
118	0xbf218012	-0.63086045
119	0xbf26c5df	-0.6514568
120	0xbf343f10	-0.70408726
121	0xbf18f544	-0.59749246
122	0xbf2687c3	-0.65050906
123	0xbf4f5e2f	-0.8100309
124	0xbf2a6cf6	-0.6657251
125	0xbf222c29	-0.63348633
126	0x3f12c0c0	0.57325363
127	0x3f1486cb	0.5801818
128	0x3f22fe9d	0.6366976
129	0x3f1917bf	0.5980186
130	0x3f17e592	0.5933467
131	0x3f2379d8	0.63857794
132	0x3f1ff3ec	0.6248157
133	0x3f183fc9	0.5947233
134	0x3f226002	0.63427746
135	0xbf12f9c5	-0.5741237
136	0xbf1c9432	-0.6116363
137	0xbf30ba4a	-0.69034255
138	0x3ef509cf	0.47859046
139	0x3effa7c6	0.49932688
140	0xbeac48b0	-0.33649206
141	0x3f059f9c	0.5219667
142	0x3f0685ee	0.5254811
143	0x3eec9d20	0.46213627
144	0x3f264d9c	0.6496217
145	0x3f15ab98	0.58464956
146	0x3f11f7c3	0.5701868
147	0x3f192ca5	0.5983375
148	0x3f196579	0.5992046
149	0x3f1a3885	0.6024249
150	0x3f1764a3	0.59137934
151	0x3f20bdc5	0.62789565
152	0x3f10e512	0.56599534
153	0x3f24eeef	0.64427084
154	0x3f29889d	0.6622408
155	0x3f2594ca	0.6468016
156	0x3f24e77a	0.64415705
157	0x3f34e97d	0.70668775
158	0x3f2b3db8	0.6689105
159	0x3f254aab	0.6456706
160	0x3f35f21d	0.7107256
161	0x3f1fa265	0.6235717
162	0x3f303f32	0.6884643
163	0x3f1e6d6d	0.6188572
164	0x3f44d9e1	0.76894957
165	0x3f2c45cc	0.67294
166	0x3f13a28e	0.57669914
167	0x3f22c72c	0.6358516
168	0x3f190765	0.5977691
169	0x3f227a8a	0.6346823
170	0x3f1b6f13	0.6071636
171	0x3f1fa559	0.62361676
172	0x3f1e632d	0.6187008
173	0x3f2535a7	0.6453499
174	0xbe8ca4b5	-0.27469411
175	0xbf1917d5	-0.5980199
176	0xbf1f34f6	-0.62190187
177	0xbf1ed46d	-0.62042886
178	0xbf135a28	-0.5755944
179	0xbf127edb	-0.57224816
180	0x3f0f4013	0.55957144
181	0x3f195ee3	0.5991041
182	0x3f0a7164	0.5407927
183	0x3f135153	0.57545966
184	0x3f15a516	0.58455026
185	0x3f0af15f	0.54274553
186	0x3f0c3f3f	0.54784006
187	0x3f19557f	0.5989608
188	0x3f15fe5e	0.5859126
189	0xbf7556cf	-0.95835584
190	0xbf2ef853	-0.6834766
191	0xbf31d2d7	-0.6946234
192	0x3ed143b0	0.40871954
193	0xbf631633	-0.8870575
194	0xbf2db384	-0.67852044
195	0xbf512cb0	-0.8170881
196	0xbf346aea	-0.7047564
197	0xbf362ea7	-0.71164936
198	0x3f0a2cf3	0.5397484
199	0x3f0f846c	0.56061435
200	0x3f1c9337	0.6116213
201	0x3f0ab6d9	0.54185253
202	0x3f0b0237	0.54300255
203	0x3f14ff54	0.582021
204	0x3f08d2fb	0.5344693
205	0x3f10070f	0.5626077
206	0x3f0825eb	0.5318286
207	0x3f19aca2	0.6002904
208	0x3f16f571	0.58968264
209	0x3f1dbbd5	0.61614734
210	0x3f1a1472	0.6018745
211	0x3f15aed0	0.5846987
212	0x3f19ba33	0.6004974
213	0x3f1c8d26	0.61152875
214	0x3f24dee3	0.644026
215	0x3f267124	0.6501639
216	0x3f0fc35e	0.5615748
217	0x3f1650b9	0.58716923
218	0x3f12a326	0.57280195
219	0x3f1cfd86	0.61324346
220	0x3f111b25	0.56682044
221	0x3f121cdc	0.57075286
222	0x3f1d6fe2	0.61498845
223	0x3f1ec0e3	0.6201307
224	0x3f1ffb64	0.62492967
225	0x3f248b99	0.6427551
226	0x3f1f4d95	0.62227756
227	0x3f1f3666	0.6219238
228	0x3f26b39b	0.65117806
229	0x3f1f22d8	0.6216254
230	0x3f1c9ccc	0.61176753
231	0x3f160803	0.58605975
232	0x3f16deb2	0.58933556
233	0x3f26b330	0.6511717
234	0x3f1b3fea	0.606444
235	0x3f24ee5e	0.6442622
236	0x3f1dae03	0.61593646
237	0x3f201bfe	0.6254271
238	0x3f24af77	0.6433024
239	0x3f201f1f	0.6254749
240	0x3f2aa877	0.66663307
241	0x3f270dfa	0.652557
242	0x3f27cc17	0.6554579
243	0xbf366781	-0.71251684
244	0xbf310206	-0.6914371
245	0xbf111a8b	-0.56681126
246	0x3f133175	0.5749734
247	0x3f202385	0.625542
248	0x3f249061	0.64282805
249	0x3f1693f4	0.5881951
250	0x3f236875	0.63831264
251	0x3f227bb5	0.6347001
252	0x3f0ef427	0.55841297
253	0x3f1428db	0.5787484
254	0x3f0e4e2a	0.5558802
255	0x3f15cce6	0.58515775

feature.func.norm1.weight f4 [64]
0	0x3fe760f1	1.8076459
1	0x3fe6419b	1.7988771
2	0x3edb0ea8	0.4278462
3	0x3f53321e	0.8249835
4	0x3fd5a12c	1.6689811
5	0x401d0619	2.4534972
6	0xbdc47650	-0.09592879
7	0x3fdb5feb	1.7138647
8	0x3fc314b6	1.5240695
9	0x400efaf3	2.2340667
10	0x3fc3a794	1.5285516
11	0x3ec08772	0.37603337
12	0x4003e261	2.060692
13	0x3eb89ec4	0.3605863
14	0x40605528	3.5051975
15	0x402924b8	2.6428661
16	0x3f2bacd3	0.67060584
17	0x3ffb1a8c	1.9617476
18	0x3fbcc5ff	1.4747924
19	0x3f47a454	0.7798512
20	0x3fddecf8	1.7337942
21	0x3f4c33d1	0.79766566
22	0x3fc2a4cf	1.5206546
23	0x40158d97	2.336767
24	0x3fbbefcd	1.4682556
25	0x3ec8127c	0.39076602
26	0x3faddded	1.3583351
27	0x3ee3ff7e	0.44530863
28	0x3fc0b6c0	1.5055771
29	0x3fccbe85	1.5995642
30	0x40096a15	2.1470997
31	0x3f259b79	0.6469036
32	0x3f754ab2	0.958171
33	0x3f48e662	0.78476536
34	0x406c1cef	3.689266
35	0x3f114031	0.56738573
36	0x3d97d31e	0.07413314
37	0x3ff29998	1.8953123
38	0xbce2593c	-0.02763044
39	0x3f0d4850	0.55188465
40	0x3f171c05	0.5902713
41	0x3eb46a85	0.35237518
42	0x3f72c698	0.9483428
43	0x400f286c	2.2368422
44	0x3f593181	0.8484116
45	0x3f03c00d	0.5146492
46	0xbe9b4473	-0.3032566
47	0x3d8b67ff	0.06806945
48	0x3f62d8e4	0.886122
49	0x3ff0d62b	1.8815359
50	0x3fd128e1	1.63406
51	0x3f47af00	0.78001404
52	0x3fefb7b6	1.8727939
53	0x401614bf	2.3450162
54	0x4051552b	3.2708232
55	0x3f119d3b	0.5688054
56	0x3f338e29	0.70138794
57	0x3f5c42c4	0.86039376
58	0xbe63f830	-0.22262645
59	0x3fb41e79	1.40718
60	0x3f8df2b7	1.1089696
61	0xbfe2baea	-1.7713292
62	0x3fe6f659	1.8043929
63	0x3f137c06	0.5761112

feature.func.norm1.bias f4 [64]
0	0x3f18162d	0.5940884
1	0x3f086344	0.5327647
2	0xbf35fcaa	-0.7108866
3	0x3ee6b083	0.45056543
4	0x3eedefff	0.46472165
5	0xbf0db732	-0.5535766
6	0xbf2245ae	-0.6338757
7	0x3f11909d	0.5686129
8	0xbf880eed	-1.0629555
9	0xbef74d46	-0.48301142
10	0x3eedf413	0.46475276
11	0xbf0693af	-0.525691
12	0xbf0185d5	-0.50594836
13	0xbe644489	-0.22291769
14	0x3f1e371e	0.6180285
15	0x3e999006	0.29992694
16	0x3ea08449	0.31350926
17	0xbf055a6b	-0.5209109
18	0xbf023d77	-0.5087504
19	0xbf160e05	-0.5861514
20	0x3f16340c	0.5867317
21	0x3f267390	0.65020084
22	0xbecbed53	-0.39829502
23	0xbf35ee97	-0.71067184
24	0xbefee6a5	-0.49785343
25	0xbf118877	-0.56848854
26	0xbee27e22	-0.44236857
27	0xbefa486d	-0.4888338
28	0xbf21f0fa	-0.63258326
29	0x3ef7f12e	0.48426193
30	0xbee63139	-0.4495943
31	0xbf1c4778	-0.6104655
32	0xbf2a2d58	-0.6647544
33	0xbf19f61a	-0.60141146
34	0xbf05626c	-0.52103305
35	0x3f0b5d2a	0.5443903
36	0xbf236699	-0.63828427
37	0xbf32887e	-0.6973952
38	0x3eba8054	0.36426032
39	0xbe82ae00	-0.25523376
40	0xbba502ad	-0.0050357194
41	0x3f0ed93e	0.55800235
42	0xbf140123	-0.57814234
43	0x3e4357de	0.19076487
44	0x3f3b3d90	0.7314081
45	0xbeb1df3a	-0.3474062
46	0x3f1b8318	0.6074691
47	0x3f01ff27	0.50779957
48	0xbf5391e8	-0.8264451
49	0xbf0bb0e2	-0.54566777
50	0x3f10bd58	0.56538916
51	0x3f2701ef	0.65237325
52	0x3f0bcd54	0.5461018
53	0xbf1fa5cb	-0.62362355
54	0xbe37c687	-0.17946826
55	0xbf27b1b5	-0.65505534
56	0x3eef93cc	0.46792448
57	0x3efd9888	0.49530435
58	0x3cfa2c87	0.03053881
59	0xbf1abf97	-0.6044859
60	0xbf0b830d	-0.5449684
61	0xbecc9f99	-0.39965513
62	0x3f04959a	0.51790774
63	0x3f2eecbe	0.6832999

feature.func.conv2.weight f4 [64, 65, 3, 3]
0	0xbf0f9516	-0.5608686
1	0xbf02066e	-0.5079106
2	0xbf1e2ebe	-0.6179007
3	0xbf1af5aa	-0.60531104
4	0xbf22f2be	-0.63651645
5	0xbf22ef10	-0.6364603
6	0xbf12d1ee	-0.5735158
7	0xbf223902	-0.63368237
8	0xbf1fcc49	-0.6242109
9	0xbf1bd8c1	-0.60877615
10	0x3ec5081c	0.3848275
11	0x3f1cd871	0.61267763
12	0xbf14a8dc	-0.5807016
13	0x3ea22c71	0.3167453
14	0x3f1ea55f	0.61971086
15	0xbf1721ca	-0.59035933
16	0xbf21b138	-0.6316104
17	0x3f13d0e8	0.5774064
18	0x3f152046	0.5825237
19	0x3f20c9fc	0.62808204
20	0x3f1de663	0.6167967
21	0x3f1e2dd9	0.6178871
22	0x3f1b8cec	0.60761905
23	0xbf1ffbe1	-0.6249371
24	0x3f22c4db	0.6358163
25	0x3f1513df	0.58233446
26	0xbf1ba56b	-0.6079928
27	0x3f22e7e1	0.6363507
28	0x3f223e4a	0.63376296
29	0xbf02179b	-0.5081727
30	0x3f1ef86d	0.6209782
31	0x3f1e5ef0	0.61863613
32	0x3f17e05c	0.5932672
33	0x3f1fb956	0.62392175
34	0xbf102da0	-0.5631962
35	0xbf225e8b	-0.6342551
36	0xbf1fc4fc	-0.6240995
37	0xbf29e21f	-0.6636066
38	0x3f184e7c	0.5949476
39	0x3f1ef5d3	0.6209385
40	0xbf2af6ff	-0.66783136
41	0x3f15c45e	0.5850276
42	0x3f237e5e	0.63864696
43	0x3f122a2f	0.5709562
44	0x3f21c0dd	0.6318491
45	0xbf3ef015	-0.74585086
46	0x3f04d24e	0.518834
47	0xbf2ae08a	-0.6674887
48	0x3f0b58fd	0.5443266
49	0x3f0dd06d	0.5539616
50	0xbf1cad6d	-0.61202127
51	0x3f097d28	0.537066
52	0x3eecdd49	0.46262577
53	0x3f16813f	0.58790964
54	0xbf139a49	-0.57657295
55	0xbf2305ca	-0.6368071
56	0xbf1c6aac	-0.6110027
57	0xbf16f480	-0.5896683
58	0xbf17e440	-0.59332657
59	0xbf19f734	-0.6014283
60	0xbf121587	-0.570641
61	0xbf229fa5	-0.6352485
62	0xbf167565	-0.5877288
63	0x3f1796d5	0.59214526
64	0x3f1886c3	0.5958063
65	0x3f1f6560	0.6226406
66	0x3f221a84	0.6332171
67	0x3f13ce4f	0.57736677
68	0x3f214fe9	0.6301256
69	0x3f1e5491	0.6184779
70	0x3f1f4eda	0.6222969
71	0x3f226a3d	0.63443357
72	0x3f1b0df6	0.6056818
73	0x3f115d01	0.5678254
74	0x3f1e0f32	0.61741936
75	0x3f10d6a5	0.5657752
76	0x3f174bb1	0.5909987
77	0x3f20d455	0.6282399
78	0x3f0ef9cf	0.5584993
79	0x3f144ec4	0.57932687
80	0x3f1def1e	0.6169299
81	0xbf87ef15	-1.0619837
82	0xbf25b079	-0.647224
83	0xbf1238f0	-0.5711813
84	0x3f17d65d	0.5931147
85	0xbf29a415	-0.66265994
86	0xbf26a1a8	-0.6509042
87	0x3f1e7fcf	0.6191377
88	0x3f1b0ca2	0.6056615
89	0x3f21c98c	0.6319816
90	0xbf1b94c0	-0.6077385
91	0xbf17fcb6	-0.5936998
92	0xbf15411a	-0.5830246
93	0xbf1f3682	-0.6219255
94	0xbf1d9fd7	-0.6157202
95	0xbf2018dc	-0.6253793
96	0xbf12b14b	-0.5730178
97	0xbf216c6f	-0.6305608
98	0xbf15fb12	-0.5858623
99	0xbf1ab771	-0.6043616
100	0xbf1f1923	-0.6214773
101	0x3f1c140e	0.609681
102	0xbf1ba1a2	-0.6079351
103	0xbf1cb39f	-0.6121158
104	0x3f1f3c09	0.6220098
105	0xbf20b688	-0.6277852
106	0xbf16c259	-0.588903
107	0x3f1cf9a0	0.613184
108	0xbf1f5def	-0.62252706
109	0xbf13cba0	-0.5773258
110	0x3ec0e77e	0.37676615
111	0xbf1249bb	-0.57143754
112	0xbf237cfd	-0.6386259
113	0xbf217a86	-0.6307758
114	0xbf114497	-0.56745285
115	0xbf177bca	-0.5917326
116	0xbf1bab6e	-0.60808456
117	0x3f089c0c	0.5336311
118	0x3f1fbb59	0.62395245
119	0xbf1332f9	-0.57499653
120	0xbf2bac71	-0.6706
121	0x3f222cfc	0.6334989
122	0xbf21f8f2	-0.63270485
123	0x3f13b959	0.57704693
124	0x3f105d19	0.56392056
125	0xbf205b5e	-0.62639415
126	0xbf26761b	-0.65023965
127	0x3f1e3ec8	0.61814547
128	0xbf1cf19a	-0.61306155
129	0xbf188e45	-0.59592086
130	0xbf0ebc30	-0.557559
131	0xbf177e82	-0.5917741
132	0xbf15b163	-0.58473796
133	0xbf2330bf	-0.63746256
134	0xbf23ceab	-0.63987225
135	0xbf1d257c	-0.6138532
136	0x3ee2d63a	0.44304067
137	0x3f13becb	0.57713
138	0xbf1589d5	-0.5841344
139	0xbf1ac36d	-0.60454446
140	0x3f114acc	0.56754756
141	0xbf19c89f	-0.6007175
142	0x3f14a0af	0.58057684
143	0x3f2300b5	0.63672954
144	0xbf160ea7	-0.5861611
145	0xbf197757	-0.59947723
146	0xbf11a23c	-0.56888175
147	0xbf18237d	-0.5942915
148	0xbf192d39	-0.5983463
149	0x3f16bb74	0.5887978
150	0xbf12de9e	-0.57370937
151	0xbf1ad497	-0.60480636
152	0x3f19c879	0.6007152
153	0xbf1f0afc	-0.62126136
154	0xbf23071b	-0.6368272
155	0xbf2343a8	-0.6377511
156	0xbf1caa6d	-0.6119755
157	0xbf19715e	-0.5993861
158	0xbf1985b6	-0.5996965
159	0xbf1f8935	-0.62318736
160	0xbf2094a0	-0.62726784
161	0xbf1466c0	-0.57969284
162	0x3f1e501d	0.61840993
163	0x3f1a2e4c	0.60226893
164	0x3f1fbf65	0.6240142
165	0x3f0fe4cc	0.5620849
166	0x3f0f81b0	0.5605726
167	0x3f0febd2	0.5621921
168	0x3f2360a6	0.6381935
169	0x3f1facdc	0.6237314
170	0x3f1feff4	0.62475514
171	0x3f167dc9	0.5878568
172	0x3f1125fb	0.5669858
173	0x3f1159fe	0.5677794
174	0x3f20f03f	0.62866586
175	0x3f16bb8f	0.5887994
176	0x3f0f24f2	0.5591575
177	0x3f22d3c8	0.636044
178	0x3f1a794b	0.6034133
179	0x3f20074c	0.62511134
180	0x3f1275a3	0.5721075
181	0x3f1ba06c	0.6079166
182	0x3f14103f	0.5783729
183	0xbf222825	-0.63342506
184	0x3f1b0666	0.6055664
185	0x3f1f2064	0.621588
186	0x3f14548a	0.57941496
187	0x3f1fc7de	0.6241435
188	0x3f226afe	0.6344451
189	0xbf1d7c5c	-0.6151788
190	0xbf1dd1b6	-0.6164812
191	0xbf1115a9	-0.56673676
192	0xbf11717c	-0.5681379
193	0xbf21d775	-0.63219386
194	0xbf197ea9	-0.59958893
195	0xbf14eb93	-0.5817196
196	0xbf1fd086	-0.62427557
197	0xbf1dc50c	-0.61628795
198	0x3f193050	0.59839344
199	0x3f0fa10f	0.5610513
200	0x3f220858	0.6329398
201	0x3f104b1c	0.5636461
202	0x3f184cbf	0.59492105
203	0x3f1d6134	0.61476445
204	0x3f1dec4b	0.6168868
205	0x3f1eef81	0.62084204
206	0x3f1d7061	0.614996
207	0xbf2027ed	-0.6256092
208	0xbf2512b2	-0.6448165
209	0xbf1cc403	-0.6123659
210	0xbf1a7458	-0.60333776
211	0xbf13c7c5	-0.577267
212	0xbf2323fc	-0.6372678
213	0xbf19f7ee	-0.60143936
214	0xbf133818	-0.5750747
215	0xbf2167af	-0.63048834
216	0x3f108425	0.56451637
217	0x3f20b270	0.62772274
218	0xbf218361	-0.63091093
219	0x3f175e32	0.59128106
220	0x3f0e244e	0.55524147
221	0xbf1d45ed	-0.61434823
222	0x3f111c36	0.5668367
223	0x3f23c41c	0.63971114
224	0x3f18fe12	0.5976268
225	0x3f0f074c	0.5587051
226	0x3f233bed	0.63763314
227	0x3f0edd19	0.5580612
228	0x3f214a71	0.63004214
229	0x3f1d8123	0.6152517
230	0x3f1b8ac9	0.60758644
231	0x3f224a5a	0.633947
232	0x3f0f40de	0.55958354
233	0x3f1d7753	0.615102
234	0xbf1cd975	-0.61269313
235	0xbf7c8753	-0.9864399
236	0xbf11c03f	-0.5693397
237	0xbf1c3e6e	-0.6103276
238	0xbf307bd6	-0.6893896
239	0xbf1b056d	-0.60555154
240	0x3f0636ab	0.52427167
241	0x3f18d74d	0.5970352
242	0x3f14ccaf	0.5812482
243	0xbf0dcd81	-0.553917
244	0x3f22f5b1	0.63656145
245	0x3f1ba543	0.60799044
246	0xbf20debe	-0.6283988
247	0xbf238a1a	-0.638826
248	0xbf1af439	-0.60528904
249	0xbf216fd6	-0.63061273
250	0xbf148e85	-0.5802997
251	0xbf1b1621	-0.6058064
252	0xbf116645	-0.56796676
253	0xbf181444	-0.5940592
254	0xbf1cbb6f	-0.612235
255	0xbf1e4ce7	-0.61836094

feature.func.norm2.weight f4 [64]
0	0x401ca564	2.4475946
1	0x3fe25a37	1.7683781
2	0xc008e011	-2.138676
3	0x3f54b146	0.83083
4	0x3fcc6172	1.5967238
5	0x3eb73615	0.3578345
6	0x3fcb9254	1.5904031
7	0x3ecb8b47	0.39754698
8	0x3f0390ef	0.51393026
9	0x3e45c22a	0.19312349
10	0x3fc49d56	1.5360515
11	0x3e9fec46	0.3123495
12	0x40223915	2.534734
13	0x3ed1a92b	0.40949377
14	0x3fd040a4	1.6269727
15	0x3ec43a87	0.38325903
16	0x3ec27576	0.3798024
17	0x3fcd6da6	1.6049087
18	0x3fe02300	1.7510681
19	0x3fc08859	1.504161
20	0x3ef441d1	0.47706464
21	0xbf57b5e7	-0.84261936
22	0x3ebbf9c8	0.36714005
23	0x3fce8f79	1.6137534
24	0x3fbe7d2e	1.4881952
25	0x3fb808d9	1.43777
26	0x3f242200	0.6411438
27	0x401ed004	2.4814463
28	0x3e6c0d84	0.23052031
29	0x3fcdccb6	1.6078098
30	0x3fcd1022	1.6020548
31	0x3fc9f652	1.5778296
32	0x3fcf2cfe	1.6185606
33	0x3f04bbc4	0.5184901
34	0x3f8db30f	1.1070269
35	0xbe893ea8	-0.26805615
36	0x3ee1a2e2	0.44069582
37	0x3fbf4375	1.4942461
38	0x402c0385	2.6877148
39	0x3f02faf3	0.5116417
40	0x3fe0effd	1.7573239
41	0x3f7683b9	0.9629474
42	0x3f32778e	0.69713676
43	0x402eb7bf	2.729965
44	0x3ff71748	1.930398
45	0x3f067a2c	0.5253017
46	0x3fe665fd	1.7999874
47	0x402a217b	2.6582935
48	0xbd0858fd	-0.03328799
49	0x3fcb30f5	1.5874316
50	0x3f8a0da0	1.0785408
51	0x3fe6e9da	1.8040116
52	0x3fc94c12	1.572634
53	0x3e94d31d	0.29067317
54	0x4024f101	2.5772097
55	0x3ec76155	0.38941446
56	0x3fbd7cf7	1.4803761
57	0x3eee347a	0.4652441
58	0x3fe261c8	1.768609
59	0x3f88cd73	1.0687698
60	0x3e47dfc4	0.19518954
61	0x3e22037e	0.15821645
62	0x3fdf26d2	1.7433722
63	0x3eb1ad5f	0.34702584

feature.func.norm2.bias f4 [64]
0	0x3ec1fddc	0.37888992
1	0xbef6f1d4	-0.48231375
2	0xbf424698	-0.7588897
3	0x3f57ae39	0.8425022
4	0x3f19d969	0.60097367
5	0xbf19e386	-0.601128
6	0x3f222192	0.63332474
7	0xbf1d3985	-0.6141589
8	0x3f92d3fa	1.147094
9	0xbf62fce2	-0.8866712
10	0x3f278a7a	0.65445673
11	0xbf268125	-0.6504081
12	0xbeda7a66	-0.42671508
13	0xbf4a537b	-0.7903363
14	0x3f11cd8b	0.5695426
15	0xbf1000a0	-0.56250954
16	0xbf190c1b	-0.59784096
17	0x3f17d6f0	0.59312344
18	0x3f132bd9	0.5748878
19	0x3f1e5f3f	0.61864084
20	0x3f594572	0.8487159
21	0xbf4e013e	-0.80470645
22	0xbf119889	-0.56873375
23	0x3f106bd0	0.5641451
24	0x3efde3d2	0.49587876
25	0xbeb02628	-0.3440411
26	0x3f3c3cea	0.7353045
27	0xbd3dbfd2	-0.046325512
28	0xbf181c74	-0.59418416
29	0x3f175d99	0.59127194
30	0x3f1a7436	0.60333574
31	0xbf18e921	-0.59730726
32	0xbf370555	-0.7149251
33	0xbee52c01	-0.44760135
34	0x3f8c4d5e	1.096111
35	0xbfbbb5da	-1.4664872
36	0xbf0cc39c	-0.54985976
37	0x3f125905	0.57167083
38	0xbdd8f14d	-0.105928995
39	0xbe9de949	-0.30842045
40	0x3ed1fbbc	0.4101237
41	0x3cdc9f98	0.026931569
42	0x3ea6138e	0.32436794
43	0xbe651525	-0.22371347
44	0x3ee5d760	0.4489088
45	0x3f403cf2	0.75092995
46	0x3f836eb0	1.0268154
47	0xbf832a66	-1.0247314
48	0xbf0e031d	-0.554735
49	0x3f13edf5	0.5778497
50	0xbee72084	-0.45141995
51	0x3ed1c676	0.40971726
52	0x3f037407	0.5134892
53	0xbee07af0	-0.43843794
54	0x3da35fe9	0.07977278
55	0x3c3d6f03	0.011562112
56	0x3f2618d5	0.6488164
57	0xbf83eb81	-1.0306245
58	0xbfa00e5c	-1.2504382
59	0x3e13e699	0.14443435
60	0x3ef78c82	0.48349386
61	0x3be63101	0.0070248847
62	0x3e948f4a	0.2901557
63	0xbedc355f	-0.4300947
